src/modelos/gru/forecast_repsol.pt (torch, 79912 bytes, 39 tensors)

weight_ih_l0 f4 [48, 6]
00000000: b846 863e 61ef 6dbe 0572 b83d f50b 75be
00000010: 3bd0 58be 014a 163e 7850 47be 82c3 7fbd
00000020: 7187 8fbe 7deb 10be 1964 273e 98a8 0dbe
00000030: ee67 dd3d 65b8 833e c743 0f3e 9b8b 6e3d
00000040: 21b5 5b3e 07f5 09be 988d 203e 99bd 243e
00000050: 6484 39be cb56 17be b2c8 903d 64f4 4dbb
00000060: 5b08 203e aec4 e7bc 8d9c 583e 7cac a03d
00000070: 1db3 1a3e db3d b4bb 084c cfbb 5431 813c
00000080: 3d75 d4bc 62b2 593e 73e6 633d 251e adbd
00000090: eff5 8c3d 8a6b 513b 1e47 f63d 7d67 1b3d
000000a0: d0d2 b43d 83fd babd 8c09 5dbe b721 09be
000000b0: c42a 57be c92f 883e f6e5 b73e 657d 46bc
000000c0: 1174 65be 9b9b 9e3d f46f e2bd 3530 813e
000000d0: ff3e cd3c 37ec a73d d141 4abe b387 a6be
000000e0: 5ff8 fcbd faa2 64be 604a 15be cd9b fc3d
000000f0: 41b2 0f3c 003b e13d 1a3e f73d e513 28be
00000100: c772 94bc 04fd f7bb 9513 a4bc eeff 64be
00000110: 10d1 8cbe 011b 6cbe 7b82 43be c196 6abe
00000120: d036 97be fec1 d3bc 4755 e9be 97eb 48bd
00000130: 5638 5c3e 8ea6 15be f430 7cbe 81ad 843e
00000140: 9ec4 b33c 8366 c7bd 92ae 19be 0175 f9bc
00000150: 34d9 fc3d 7078 b9bd cd3f 6dbb b1b2 66be
00000160: 8bdc 08be 66ef e4bd 980e 00be dafb c6bc
00000170: 4c23 31bd e7ee e4bc 5a32 49be e061 93bd
00000180: 0420 9f39 5a80 3a3d cb4e eebd 28a3 72be
00000190: b039 0d3d 3ac8 cdbb c666 adbe 2f7c 93be
000001a0: 4ec9 c6be 8d78 763e 0891 2b3e 7a87 afbd
000001b0: af4d acbc 2b21 3ebe 07a1 29be 4b1f 2dbe
000001c0: d940 953d dfa3 563e aa33 773d abcb 3dbd
000001d0: bf9d 243e c9f1 593e d185 253e 722e 46be
000001e0: 6bad 88be d295 a6be 182b b6be 5baa 47bd
000001f0: 9a09 6ebe 3252 9b3d 24b3 69be 1344 c83d
00000200: 5156 f1be dd55 39bc 4138 4c3e 0af2 0abe
00000210: 51ce 2bbe df72 f9bd d68a 863e 2a53 8e3e
00000220: 1f38 553e 0aa5 8b3d 2d9f 6a3e 563c 3f3d
00000230: 5958 c33c 09f9 39bd 2b9a 6f3e 1de7 b4bd
00000240: 05bb 98bd 8a19 51be 0683 6f3d d47f 5b3d
00000250: 6080 df3d 8267 f53d 1321 4abc 4613 64be
00000260: c854 363e 2101 e33c afef 21be 0b84 b0be
00000270: baf1 b33e fa39 813e b9f0 2a3e 0bf4 ad3a
00000280: fac9 8dbc 9df8 b73e 0de4 21be ff2f 933e
00000290: 0704 133e 590b 26bd 5f55 8d3c 6966 643e
000002a0: ae69 a73e 2651 be3e ceed 3f3e 0b59 b3bb
000002b0: 282e ee3d 4c05 923d 1d6d 9c3e 03f5 a23e
000002c0: 82f7 da3e 5a67 303e e780 c3bd 0cc2 663e
000002d0: 121b 093e 3388 1c3e 0b65 6d3e d370 97be
000002e0: 39ae b0be 85a8 6cbe 9c8b 0e3d b30a e9bd
000002f0: 7201 47be 117a 88be f318 243e 48be 14be
00000300: 3f40 a43d 7b08 103e 30af 343e 93e0 87bd
00000310: 990b 013e a61e 24be f1f0 05be e300 8dbd
00000320: 4c66 2abe bf1a 353e 9d7c 1ebd f560 bf3d
00000330: 8f7b 083c ab66 673e 5db1 1fbe c817 f9bc
00000340: c478 8abd 5831 143e 9d9f 34bd 99c5 323e
00000350: 8f6d 2039 281d 99bc 2408 1bbd 774b 40be
00000360: 46ba 75bd e7a5 afbd 4a9f 2b3e 5fd7 a13d
00000370: dc60 43be e3fe 07bd 1d78 0d3e 5879 ba3d
00000380: a450 97bc 0476 0ebe 54ad 91be d6b1 58be
00000390: 963d 51be 1277 8f3c 9ef8 353e 5a60 4ebd
000003a0: 22ea 833d c7c0 143d 79dd b03d bb1f 4b3e
000003b0: 275f 7dbd 5138 b4bd 58ca c0bd 5603 52be
000003c0: 1c96 a5bd 1e0d c3bd 7c70 63be 0858 1ebe
000003d0: 8311 2abe 1a45 d43d 7e26 043e b17d 0bbe
000003e0: c47b 4dbe 73c6 6e3e f097 903e 949e 713e
000003f0: bda6 08bd 5f23 01be e0d0 0ebe 1dfa abbd
0.2622583 -0.23235847 0.090061225 -0.23930342 -0.21173184 0.14676668 -0.1946429 -0.06244231
-0.2803302 -0.14152332 0.16346778 -0.13833845 0.10810839 0.2572662 0.13990699 0.058238607
0.21455814 -0.13472377 0.15679014 0.16087951 -0.1811691 -0.14779203 0.070695296 -0.0031426186
0.15628187 -0.028292026 0.2115347 0.07845399 0.15107389 -0.005500538 -0.0063262023 0.015770592
-0.02593481 0.21259454 0.055639695 -0.08453015 0.068828456 0.0031954967 0.12025283 0.03794049
0.08829272 -0.09130385 -0.21585673 -0.13391767 -0.21012408 0.26598957 0.35917634 -0.012114857
-0.22407557 0.07744523 -0.110565096 0.25232092 0.025054453 0.08199351 -0.1975167 -0.32525405
-0.123520605 -0.22327796 -0.14579153 0.12334404 0.008770526 0.109975815 0.12072392 -0.16413839
-0.018121136 -0.0075680036 -0.020028869 -0.22363254 -0.27503252 -0.23057176 -0.19092743 -0.2290907
-0.29534006 -0.025849339 -0.45572874 -0.0490528 0.21505865 -0.14614317 -0.24628049 0.25913623
0.02194434 -0.097363494 -0.15008 -0.0304513 0.12346116 -0.09056175 -0.0036201358 -0.22529103
-0.1336538 -0.11178474 -0.12505567 -0.024290014 -0.043246552 -0.027945949 -0.19648114 -0.071964025
0.00030350697 0.04553256 -0.11636122 -0.23695052 0.034478843 -0.0062799724 -0.33867472 -0.28805682
-0.38825458 0.24069424 0.16754544 -0.08570762 -0.021033136 -0.1856734 -0.16565333 -0.16906469
0.07287759 0.2096095 0.060352005 -0.04633681 0.160758 0.2128364 0.16164328 -0.19353655
-0.26694807 -0.3253618 -0.35579753 -0.048746448 -0.2324585 0.07584037 -0.22822243 0.09778609
-0.47136167 -0.011311975 0.19943334 -0.13568893 -0.16777922 -0.12180113 0.26277798 0.27797824
0.2082219 0.06818588 0.22912283 0.0466884 0.023845838 -0.045403514 0.23398654 -0.08833144
-0.07457546 -0.20419899 0.058474563 0.053588703 0.109131575 0.11982633 -0.012336987 -0.22272977
0.17805779 0.0277105 -0.15814088 -0.3447574 0.3514536 0.25239545 0.16693391 0.0013271583
-0.017308224 0.35931864 -0.1580965 0.28747556 0.14357005 -0.040538166 0.017252622 0.22304691
0.32697815 0.37171286 0.18743059 -0.0054732612 0.11629897 0.071299165 0.30551997 0.31827554
0.42766958 0.17226925 -0.095460705 0.2253496 0.13389233 0.15286331 0.23183076 -0.29578266
-0.3450792 -0.2311116 0.03480111 -0.11378994 -0.19434145 -0.2665563 0.16025142 -0.14525712
0.080200665 0.14065735 0.17644954 -0.06634631 0.1260208 -0.16027316 -0.13080193 -0.06884935
-0.16640586 0.17685984 -0.03869306 0.09344665 0.00833024 0.22597758 -0.15595002 -0.030406848
-0.067613155 0.14471948 -0.04409753 0.1745819 0.00015299603 -0.01869066 -0.03784956 -0.18778788
-0.059992097 -0.08576565 0.16759983 0.07902407 -0.19079918 -0.033202063 0.13815351 0.09105176
-0.01847107 -0.13912207 -0.2845255 -0.21161589 -0.2043365 0.017512832 0.17770621 -0.050384857
0.06441142 0.03631666 0.086359926 0.19836323 -0.061858322 -0.08799804 -0.09413594 -0.20509085
-0.08085272 -0.09523986 -0.22210878 -0.15463269 -0.16608243 0.103647426 0.12905309 -0.13622166
-0.20066744 0.2331789 0.2824092 0.23595649 -0.03336214 -0.12611149 -0.13946867 -0.08397315

weight_hh_l0 f4 [48, 16]
00000000: 1493 863d 3495 aabd 0274 6c3e ce0e 0ebe
00000010: ccab 743e 741e 21be 8ec1 17be 7fa1 393d
00000020: d375 f5bd 6cef 7abe 796d d93b 7489 3ebe
00000030: 1112 fabd f7e7 073e 0162 68be 126d 123e
00000040: b404 edbd 11b4 113d 4341 013e 52ac 2dbd
00000050: 722d 7dbd 346b 3c3e 51cd 223e 4aa5 153e
00000060: 8409 32bd 11f9 4d3b 180b c3bc 7d4c aabe
00000070: e34e 11be c402 a73d 7532 7abe c05b 6b3d
00000080: 40c3 1f3e 103b 833c 1718 5cbc 78cc 213e
00000090: 75ff 00be 5efd 403e ba22 febd ffbe 34bd
000000a0: 8130 3bbe de58 f23d 5cd7 65bd 5a4d 6f3d
000000b0: b553 e3bd c10f 10be 97d3 98bd 5e48 b8be
000000c0: 4c9f 0cbe 5580 483e 4ea1 6bbb 2b26 b0bd
000000d0: bd9f e5bc 2198 63be 5b8b cc3d 79c5 99bd
000000e0: a76c 4abe 14f1 033e f169 cb3d b44a 17be
000000f0: d231 eabd 5de0 69bd 0dc8 24be 1003 98bd
00000100: 0add f2bd 52da 95bd e7da 533e c9ba 103e
00000110: abc6 793e e502 82be c9d2 edbb 4c67 49be
00000120: f768 adbe ee7b 00be 92c3 40be df8c 0abe
00000130: e4d2 36bd 0dc7 083d d5cd 9c3d ccab 4abe
00000140: 6537 7fbe 7989 5e3e 7ce3 6b3d 00bf eabd
00000150: 61c2 f93d 22c7 6dbe 6132 78be 561c 99bd
00000160: d843 473d e843 043c 5160 eb3c 4ec2 39be
00000170: b4f3 20bd 1391 51be 9240 6abd 7066 e9bc
00000180: 921f bebd 10be 8a3d 847d 2dbe fd27 2f3e
00000190: a469 3dbe e263 48be 1d4c 803d cdb3 fdbd
000001a0: 42eb 29be d24a aebd e002 733b e7d7 263e
000001b0: 0f3f 0dbe 824b 09bd 1450 0d3e 2615 973d
000001c0: ab97 7ebe ea98 0f3e 45c6 51bd f8fe 1fbc
000001d0: 82df bebe de2a 88be d786 b9bd 1cf1 a4be
000001e0: 2671 93be 9997 b93e 20d8 a2be 9435 64be
000001f0: a7c0 03be 046c 21be ad14 abbc e838 893e
00000200: 9ec2 80be 01f7 3e3e 6480 d7bc d593 ba3c
00000210: 7a42 a1bd 92a4 1a3e 34a8 d5bd bd63 6c3d
00000220: f671 17bd 8015 ae3d 22fd 9a3e d6ec 8ebd
00000230: 5ab6 a33d aa91 87be 337f eebd c527 e13c
00000240: 46c7 4a3c 1b37 8ebe 4799 2d3d fef9 d3bd
00000250: f950 313e 437d 8a3d e15e 3fbe ef7f c7bd
00000260: 12c0 6abe c998 f9bd a8a2 98bc be9c 003e
00000270: 0db1 09be 12fa 40be 74e0 15be 8205 683e
00000280: ca23 b83d d3be 3f3d d8a9 70be 87aa 9d3d
00000290: 37d4 443c a078 923d 047f 24be 9295 9f3e
000002a0: 6c98 d8bd 3864 72be 02fb 50bd e33e 443e
000002b0: 3849 b0bb 84c9 2a3e 633f 203e f1e6 8abe
000002c0: 4987 88bd 9c70 1c3e 3d1e efbd 3a07 743e
000002d0: 4990 37be ac6f acbd 6c9c e1bc 7b2f 0a3e
000002e0: eea8 84bd 2632 a23d e7ac 333e 4123 dd3d
000002f0: dd63 63be 3350 37be 3d2a 89be d4f1 bebd
00000300: 6f75 093e e446 39bd 837a 67be 8d77 34be
00000310: a173 8fbe 2999 da38 9ebb 24be de10 06be
00000320: f40d 663e 6cc8 233c df35 7f3e a7cb 1c3d
00000330: 05c3 de3c 1d76 37bf 2712 f8be eacc 3ebe
00000340: b361 09bb 1013 5d3e 9d04 9fbe 0583 513e
00000350: bdef bd3e 2cff 423d bbf1 7b3e 93d9 2abe
00000360: 873d 543e 2e80 acbe 3065 3e3e 5ac8 0fbe
00000370: 6151 80be f847 3d3e 8e1d 1f3e 1a4e d3be
00000380: b143 d6bd 4654 fd3d 8ffa 80be 39d9 c7bd
00000390: 0508 713d 885a 443e 0799 6e3d 2ff8 663e
000003a0: 3614 823e b091 ab3d 0660 8bbd d12a d33b
000003b0: dee3 e73d bcdf 923e c69d 90be c3d5 d33d
000003c0: 86a6 f1bc 88e3 523e f623 d7bd 7ad4 173e
000003d0: d8a4 f13d 397d 8b3e cc8d 7fbe b74b 28be
000003e0: cf95 f43c df5b 263e 4e5a bb3e 7ff6 1fbe
000003f0: 1795 c3be bc6b 40be 2080 f43d 5444 03be
0.06571022 -0.083292395 0.23091128 -0.13872835 0.2389366 -0.15734273 -0.14819929 0.04532003
-0.11985364 -0.24505395 0.0066353646 -0.18607122 -0.12210477 0.13272081 -0.22693636 0.1429942
-0.11573163 0.035572115 0.12622552 -0.042400666 -0.06181092 0.1840027 0.15898634 0.14613834
-0.043466106 0.0031428973 -0.023809 -0.3326148 -0.14190249 0.081548244 -0.2443331 0.057460546
0.15601826 0.016019374 -0.013433478 0.15800655 -0.12597449 0.18846652 -0.12408967 -0.04412746
-0.18280222 0.11833356 -0.056113586 0.058423378 -0.1109995 -0.1406851 -0.074622326 -0.35992712
-0.13732642 0.19580205 -0.00359543 -0.0860103 -0.02803027 -0.22226001 0.099875174 -0.07508368
-0.1976801 0.12884933 0.09932316 -0.1477459 -0.11435284 -0.057098735 -0.16091938 -0.07422459
-0.11858566 -0.07317032 0.20688973 0.14133753 0.24392192 -0.25392833 -0.0072577936 -0.19668311
-0.33869144 -0.12547275 -0.18824604 -0.135303 -0.044634715 0.033392955 0.07656447 -0.19792098
-0.24923475 0.21732129 0.057589993 -0.114622116 0.12195278 -0.23220494 -0.24237968 -0.07476108
0.048648685 0.008072831 0.02873245 -0.18140528 -0.039294913 -0.20465498 -0.057190485 -0.028491229
-0.09283365 0.06774533 -0.16942412 0.17105098 -0.1849733 -0.19569352 0.062645175 -0.1238781
-0.1659365 -0.085103646 0.003708057 0.16293298 -0.13793586 -0.033519275 0.13800079 0.073770806
-0.24862544 0.14023176 -0.051214475 -0.009765379 -0.37279898 -0.26595205 -0.09058922 -0.32215202
-0.28797263 0.36248472 -0.31805515 -0.22286063 -0.1286646 -0.15763861 -0.020883882 0.2680123
-0.2514848 0.18648912 -0.026306339 0.02277557 -0.078740075 0.15101841 -0.10432473 0.057712305
-0.036973916 0.085001945 0.3027125 -0.069787666 0.07993765 -0.2647832 -0.11645355 0.027484784
0.012376612 -0.27776417 0.042382505 -0.103504166 0.17316045 0.06762173 -0.18688537 -0.09741198
-0.22924832 -0.121873446 -0.018632248 0.12559792 -0.13446446 -0.18845394 -0.14636403 0.22658351
0.08991201 0.046812844 -0.2350229 0.07698541 0.012013487 0.07151914 -0.16064078 0.311688
-0.10575947 -0.23671043 -0.05102063 0.19164614 -0.005379822 0.16678435 0.1564918 -0.2712932
-0.066664286 0.15277332 -0.11675689 0.23830882 -0.17926134 -0.08419737 -0.027540408 0.13494675
-0.06477533 0.07919721 0.17546426 0.1079774 -0.22206064 -0.17901687 -0.26790038 -0.09323469
0.13423704 -0.045233622 -0.22605328 -0.1762373 -0.28017905 0.00010423578 -0.16087195 -0.13092372
0.2246626 0.009996515 0.24922894 0.038280156 0.027192602 -0.716646 -0.4845135 -0.18632856
-0.0020962774 0.21589303 -0.31058207 0.20460136 0.37096968 0.047606632 0.24603932 -0.1668456
0.20726596 -0.33691543 0.18593287 -0.14041272 -0.25062087 0.18484485 0.15538618 -0.41270524
-0.1046213 0.123695895 -0.2519116 -0.09758229 0.05884554 0.1917516 0.058251407 0.22555612
0.25406045 0.08377397 -0.068054244 0.006444313 0.11322759 0.2868632 -0.28245372 0.10343506
-0.02949835 0.20594609 -0.10504906 0.14827147 0.117990196 0.27243975 -0.24956435 -0.16435133
0.02985659 0.16245984 0.36592335 -0.15621375 -0.38199684 -0.18791097 0.119385004 -0.12819034

bias_ih_l0 f4 [48]
00000000: 3301 a83d f070 f1bd 22c9 88be 0f83 fdbd
00000010: 8741 4d3d 6421 783e 026b 2abe 8f7c 473e
00000020: d5d2 30be 7579 313e f3c8 52be 7f88 99bc
00000030: 6553 5d3e 8b20 fa3d cae8 573e 1394 1abe
00000040: 66f0 78be d667 b5bd 7c85 083e cb14 993e
00000050: 926c 3b3e 2f34 8f3d f714 333d 1764 a23e
00000060: a8e0 b0be ea3a b33b a529 6b3d 038c 883c
00000070: 171c f43b 9a0e be3d 1275 443e 542d 5fbe
00000080: e3da 33be ca3c 04be 2491 f13d 4a32 16be
00000090: 0fd8 b93d 4351 d4be 55a2 cc3d 6d99 e53c
000000a0: 77d1 3f3e 9038 5cbe eaf4 113e b67a 203e
000000b0: 48ba 443e 3f44 a3bc d5e6 663c 7c31 88be
0.08203354 -0.11789119 -0.26715952 -0.12378513 0.05011132 0.24231488 -0.16642383 0.19481109
-0.17267926 0.17331488 -0.20584469 -0.018741844 0.21613844 0.12213238 0.21084896 -0.15095548
-0.24310455 -0.08857696 0.1333217 0.29898676 0.18303135 0.06992375 0.043721166 0.31716987
-0.345464 0.0054696696 0.057412762 0.016668325 0.0074496376 0.09280129 0.19185284 -0.21794635
-0.17563967 -0.12913814 0.117952615 -0.14667621 0.09074413 -0.41468248 0.099919 0.02802726
0.18732248 -0.21505952 0.14253584 0.1567181 0.19211686 -0.019930003 0.014093121 -0.26600254

bias_hh_l0 f4 [48]
00000000: f998 363d a89b e5bd 5ab2 11be d0b9 ef3d
00000010: c837 6f3e f0b2 9f3e d8b3 4a3e a111 6d3e
00000020: 3cf4 c8bd 8d41 433e 4fa7 653e 0481 49bd
00000030: 4863 e23d 3133 9f3c f9a5 31bd b684 91bd
00000040: 3464 0ebe 82ae c53d 4b88 cabd 3107 043e
00000050: 2717 91bd 89f3 2f3e 43e9 d83e 7522 fcbd
00000060: 7de6 b6be 42ab 013e f4a8 85bc 853a 503e
00000070: ed52 0fbd 311e 953e 227b 793e c076 08be
00000080: 10ed 26bd c531 473e 49ca 1a3e 6163 f3bd
00000090: fadf d2bd 8c0e 6abe abd1 f3bd 0a7d a73c
000000a0: 980a 40be 98b5 20be f058 a1be 2c7a 85bc
000000b0: ae8b 673d 1084 903e 9d68 6b3e 9f99 193e
0.04457948 -0.1121133 -0.14228192 0.11705363 0.23361123 0.31191206 0.19795167 0.23151256
-0.09812209 0.19067974 0.22427104 -0.049195305 0.11054093 0.01943359 -0.043371174 -0.07105391
-0.13905412 0.09652425 -0.09889277 0.12893368 -0.07084494 0.17182745 0.42365465 -0.1231126
-0.35722724 0.12662986 -0.016315915 0.20334823 -0.034991194 0.29124597 0.24363378 -0.1332655
-0.040753424 0.1945258 0.15116228 -0.118841894 -0.102966264 -0.22857112 -0.11905225 0.020445365
-0.18754041 -0.15694273 -0.31513166 -0.016293608 0.056529693 0.28225756 0.22989126 0.15000008

weight_ih_l0_reverse f4 [48, 6]
00000000: 00f6 53bc b618 c63e b213 033f 037b b83e
00000010: bbbb 61be c374 023e b751 3bbe e7d8 bc3e
00000020: 6cc0 eb3d 16ce b03e 44af bf3b 2556 9b3e
00000030: 0ca5 fdbd f8c7 31be 4845 ac3b b6ca 80be
00000040: db49 7ebd bb10 2ebe 7249 003e 47be 2abe
00000050: 682b f93c 4834 44be 93ca a7bc b6fb b43d
00000060: 0a53 823d 5a8f 4bbe a5fd 9f3d c0f3 81bd
00000070: 9402 013e 38ff 063e 92cf e3bc a2de 62bd
00000080: 87eb d5bc c733 c7bd 2a3c 78be 5bda 64be
00000090: 75bf a13d 3e0b 9ebe 638e 88be fd6b 79bd
000000a0: b898 e43c 43c8 91bd b860 a43e 01a4 bb3d
000000b0: 126d 51bd 2c20 f4bd 7b55 b03e 99f3 6a3d
000000c0: 22eb 523b 9dc6 29be 50a5 e8bb 87db 31bd
000000d0: 626c 563e f81f 1fbe 5577 50bd 1b60 a43c
000000e0: 92b0 28be 5586 febd 66ed b13d 4837 193c
000000f0: 2590 c9bd 04b6 793d 9871 123e 3db8 d6bd
00000100: b417 a7bc be7c 7a3c 4390 893e 215e e5bc
00000110: 0879 383d 775c 33be 4203 c1bb 84af 8a3e
00000120: 058b 2a3e 83a9 1b3d 0f2a 843d 9287 60bd
00000130: 91d0 b33c 0ee8 49be 1923 1abe 460a 0c3e
00000140: 4875 573e c539 903e 7149 72bd 8bd6 863e
00000150: 533f 00bd bbf8 b5bd d4a3 873d dd50 50be
00000160: 6469 2d3d aae3 f83b 5615 3a3d 28d3 d2bd
00000170: 604e 61be cf61 febd d272 393e 90c2 19be
00000180: 9963 bc3d e293 49be 9dec 233e 725f 84bc
00000190: 5785 d0be e2c2 6dbe a7c2 e7bd 4cb3 a7bc
000001a0: c47e a53e cc74 1ebe a28b c43c 9d92 55be
000001b0: ff6b 95bc 81f9 1abd 567e 79b9 9b89 2ebd
000001c0: 0d94 fdbe 227e b9be 0087 ae3c 3c4e 2bbd
000001d0: b857 c9be b43d 283e ab95 1fbe accb c0bd
000001e0: b2b3 883e f58b 8b3e e44a 903e 33fe 8c3d
000001f0: 07b7 133e e849 833e 496e 76be 5d93 b0be
00000200: 098f d9be 89e7 f9bc 04fd 193e 2544 5e3d
00000210: 966c 81be e499 a5be 3758 8cbc 0f71 053d
00000220: dcd8 663d 42a4 5c3c 6090 593e 9912 463e
00000230: 2805 ef3d cd9e 423c 4961 a73e 217d 713d
00000240: 0fce 0d3d 7518 623e fa1a 863e c375 353e
00000250: ebf4 073e e396 463e b8d8 623e cbbb e13d
00000260: ce79 0a3d 3588 233e a785 a03e 51f9 27bd
00000270: f44c 7dbe 44fa 13be 7b27 3a3e 8be1 17be
00000280: 2003 8fbd b303 4d3c 431c 043e 5d31 ba3d
00000290: c3bf 963d 7e87 5d3e 44af ed3d 4542 2cbe
000002a0: 6e06 843a ad55 153d 7652 b93e 8ec5 39be
000002b0: e524 67bc 5d16 423e 17cb 70be 7a52 85be
000002c0: b82a e23d 0b3e b9be dd04 abbe a95a 68bd
000002d0: 6031 103e 33ac d73e 5641 c63e dd61 3d3e
000002e0: 683c 943e 4ba4 503c 42b1 52bd ac06 99be
000002f0: c41b dabc efa5 233d 1a5e afbc 5bd1 a0bd
00000300: ce6c c6be e545 f6bd 15b8 1bbd 674c 003e
00000310: 9b3b 16be 2ed9 88be 82f1 13be aa95 8dbd
00000320: 7642 f4bd c1f3 b93d 218c d5bd 2c7e 863d
00000330: 896a 963e 4698 803d 1e75 403e 8f13 fdbd
00000340: 4ce7 5cbe ceb7 dcbb dde9 1f3e 7e3f a2bc
00000350: 0078 4a3e 4ada 83b9 885e 96bd 92a6 1e3e
00000360: 293d 9abd a98d 91be ec3e 18be 3d46 b2bd
00000370: 940c 6ebd fb64 0bbe 7f7c cd3c 27da dfbd
00000380: dec7 a03c 5c9d 81be 1aa2 f33d b907 8abe
00000390: b049 8dbe c299 33be 1cbd b3bd 7179 6fbe
000003a0: 0df8 11be 951c f73d af23 c4bc a860 47bd
000003b0: f71d 8abe fba6 55be 50b0 63be 2eab edbd
000003c0: 8646 e43d 0220 0a3e e280 0f3e b418 5e3e
000003d0: b9fa b3bc 0680 87be 7b8c ef3d 0d6b a4be
000003e0: c589 cbbc f81f ddbd 39dc 83bd b2d7 fa3d
000003f0: 5f16 61bc a2f8 1b3e 5906 1b3e f0d9 ebbd
-0.012937069 0.38690728 0.5120193 0.3603135 -0.2204427 0.12739854 -0.1829289 0.36884233
0.11511311 0.3453223 0.0058497507 0.3033916 -0.12384996 -0.17361438 0.0052572824 -0.25154656
-0.062082153 -0.1699857 0.12528017 -0.16674148 0.030416206 -0.19160569 -0.020482337 0.088370726
0.06363495 -0.19878903 0.07812051 -0.0634532 0.1259864 0.13183296 -0.027808938 -0.0553881
-0.026113285 -0.097266726 -0.24241701 -0.22348921 0.07897846 -0.30867952 -0.26671132 -0.060894
0.027904853 -0.07118275 0.3210504 0.09162141 -0.05112941 -0.11920199 0.34440216 0.05736122
0.0032183607 -0.16579671 -0.007099785 -0.04342225 0.20939782 -0.15539539 -0.050895054 0.020065358
-0.16473606 -0.124279656 0.08687858 0.009351559 -0.098419465 0.0609646 0.14301145 -0.104843594
-0.020397045 0.01528853 0.26867875 -0.027998986 0.0450373 -0.17515741 -0.005890281 0.27087033
0.16654594 0.038003456 0.064533345 -0.05481679 0.021950038 -0.19717428 -0.15052451 0.13675794
0.21040833 0.28169075 -0.05915207 0.26335558 -0.03131039 -0.08885332 0.066230446 -0.20343347
0.042336836 0.007595499 0.045430504 -0.10294181 -0.22002554 -0.12420999 0.18110207 -0.15015626
0.09198684 -0.19685319 0.1600823 -0.016158793 -0.4072673 -0.23218873 -0.11316424 -0.020471238
0.32323277 -0.15474242 0.023992363 -0.2085671 -0.018239973 -0.0378356 -0.00023793554 -0.0426117
-0.49527016 -0.36229044 0.021304607 -0.041822657 -0.39324737 0.16429788 -0.15584438 -0.09413847
0.26699597 0.27255216 0.28182137 0.06884422 0.14425288 0.25642323 -0.24065508 -0.3448743
-0.4249194 -0.030505912 0.15037924 0.054264206 -0.25278157 -0.32343972 -0.017131908 0.032578524
0.056359157 0.0134668965 0.21246481 0.19343032 0.11670905 0.011878681 0.3269141 0.058957223
0.03462034 0.22079642 0.26192456 0.17720704 0.13277023 0.19393496 0.22152984 0.11022147
0.03380757 0.15969928 0.3135197 -0.04100925 -0.24736387 -0.14450938 0.18179123 -0.14832132
-0.06983018 0.012513089 0.12901406 0.090914465 0.073607944 0.21633717 0.11605695 -0.16822155
0.0010072717 0.03645866 0.36195725 -0.18141767 -0.014107917 0.18953843 -0.23514973 -0.26039487
0.11043304 -0.36180148 -0.33402148 -0.056727085 0.14081335 0.42123565 0.38721722 0.18494363
0.28952336 0.012734483 -0.051438577 -0.29887903 -0.026624568 0.03995317 -0.021407176 -0.078524314
-0.38754886 -0.1202505 -0.03801735 0.12529145 -0.14671175 -0.26728195 -0.14447597 -0.06913312
-0.11926739 0.090796955 -0.10427118 0.06567034 0.29378155 0.06279044 0.18794677 -0.12357246
-0.21572608 -0.0067357784 0.15616556 -0.019805666 0.19772339 -0.00025148905 -0.07342249 0.15493229
-0.075311966 -0.2842839 -0.14867753 -0.08704803 -0.058117464 -0.1361274 0.025083778 -0.10930281
0.019626554 -0.25315368 0.11896153 -0.26959017 -0.27595282 -0.17539123 -0.08776304 -0.2338617
-0.1425478 0.120659985 -0.023942797 -0.048676163 -0.26975986 -0.20864479 -0.22235227 -0.116049156
0.11146264 0.13488773 0.14014009 0.21689111 -0.02197014 -0.26464862 0.116967164 -0.32112923
-0.024845967 -0.10797113 -0.064384885 0.12248172 -0.013738244 0.15231565 0.1513914 -0.11516178

weight_hh_l0_reverse f4 [48, 16]
00000000: 42a3 87be cb03 9cbe a4c0 0f3d 0b7e 673e
00000010: 61e0 b9be 228e bfbe 60a7 ddbe 9698 a2be
00000020: ea11 a13e e5cf 46be a0a5 2e3e 9c61 0b3f
00000030: 4099 53bd 042e 0b3f 459b 2b3e 815b 2dbf
00000040: c39b 473e 6b6d 05bd e847 b6bd fa8c 9f3c
00000050: 04c8 2fbd 29ec f5be 3639 79bc 4e70 dcbc
00000060: 9c25 8d3e 71b2 5bbd 50d0 a53d 7451 e43d
00000070: c932 243e ee89 733e 7c71 ad3d dcd7 913e
00000080: d2b8 833e 8666 4b3e aa43 2bbe b5f5 4abe
00000090: 30fd 4dbc f51b 31be 4066 0c3d 76b2 1fbd
000000a0: 8267 04bc a2f2 1ebe b847 3f3e 7306 31be
000000b0: 553f 4fbe e0b7 3f3e 9a03 eabd a491 2d3e
000000c0: 24c2 3a3e 1fa2 8a3d f24c 6e3e 840a 713d
000000d0: 3727 33bb 0cd2 93bd d196 953d 2dfa dd3d
000000e0: 765d ac3d f355 d6bd d39f 123d f551 0abd
000000f0: 7946 de3d 7d1d b33d 1abc 033e 016e 51be
00000100: 479e 6cbe 1258 013d 9cbc 8b3d bb42 1b3e
00000110: 76fa 12be c672 5e3d 1190 28bd 3960 7fbc
00000120: 6135 2abe 02d4 b3bd 729e 0fbd 1c1f edbd
00000130: 9564 80be 9635 333e 2c7b 90bd fc74 913e
00000140: 6583 e63d 1975 06be b317 71be 2a81 3b3e
00000150: bc84 333e 56b3 40be 6ee1 873d c27c 04bd
00000160: 4245 b3bd e5af 19bd 4219 b3bd 016e 99bd
00000170: adb0 f33b 5bd2 3fbe e88c 8c3e 5299 ebbd
00000180: ed3a e53d 5374 c5bd 9dad 1dbe 9b1c 86be
00000190: f579 ed3d b8d2 b93d 459e bc3c 992c 673e
000001a0: b004 1abe 3488 533e 9299 9ebe 2eeb 2d3d
000001b0: ad2a 6cbe 07a1 82bb b546 2f3d 58fe 013d
000001c0: e854 55be 78e7 8bbe 9b0a 9f3c a2b1 80bd
000001d0: 9352 0fbe 7a96 26be e17e db3d 58e1 14be
000001e0: 33e1 013d c2b5 663d 3928 913e f0a0 d7bd
000001f0: ce63 b2bd 3e50 2fbd abf4 903c c0b4 94be
00000200: 9de7 47be 3cc2 7a3e f678 7dbe f9fe 13be
00000210: 3537 733c 1910 1cbe 2682 f1bd c142 573e
00000220: 239b 90bc 15fa 77be 6dfd 2c3e 0210 bebd
00000230: 7cee 2c3e 0812 323e 736c 17bd 2390 0a3e
00000240: 55af 073e e1e3 ccbc 19cd 59bd 9c30 003e
00000250: 689a 043e 180c 8d3e 659b 82be 65db 2d3d
00000260: 6db3 80be 1ac1 c3bd 2e08 60bc d72d 0dbe
00000270: 4914 87bd 53c7 443e d629 95bd f9bb 3e3e
00000280: c237 363e 3af2 3cbe cc68 213e 9719 8bbc
00000290: f834 283c 29f0 44be 4e70 02be a7ca 42be
000002a0: 6472 c93d cdf4 1c3d 7bb3 233e 1976 6b3e
000002b0: 3c4e 7f3c f760 753e f4d5 003e ac5a 8ebd
000002c0: ed89 02be 83a2 463e d0e7 463e fd96 293c
000002d0: e5fd 753b 054e 56be 007b 71be a61a 87be
000002e0: 79db 733e d598 5fbe ab1b 753e 97d5 0abe
000002f0: 8f29 8bbd d789 543e def8 433e 236e 66bc
00000300: 178f b5be 17d0 f73c b645 69be fcbd 3f3d
00000310: 50bc 52be 0071 d4bd 68ae 07be 6285 cc3d
00000320: c0ef 853d 41e3 3e3e 0531 e23e 2784 4b3e
00000330: 8d8b c2bc 56dd ad3e 09aa c8bd 9f90 cf3d
00000340: 601f 72be 83e0 a2bd 5efa 3abe 2a73 2e3c
00000350: 2ab8 01be 8562 9abe 973d 2ebe 1bc7 64bd
00000360: 8953 63be 27e1 0e3e c353 b43e 47b7 983e
00000370: 2dac 2f3e 633f a53c 2c76 19bd e479 66bd
00000380: a9a0 313e c6c6 3abd 7690 523e 1e18 073e
00000390: 00b2 ed3d dceb 5a3e 9507 2e3e 49fb 533e
000003a0: 1700 70be 8073 8f3e 8156 d5bc 872b 74be
000003b0: 973e b53d b5b7 ab3d 1d82 413c 8f8c 51bc
000003c0: 61d9 5fbe 9b58 93be 2fef 1cbd dfc2 8cbc
000003d0: 8bb2 c9be 7ded 93bd 4697 7ebd 134f 85be
000003e0: 5b27 953e 5cfb 10be ffb4 8c3e c715 003e
000003f0: 89cf 0fbe 2971 13be ced9 943e ee9f 73bd
-0.26491743 -0.30471644 0.035095826 0.22606675 -0.36304 -0.37413126 -0.4329176 -0.3175704
0.3145898 -0.19415243 0.17055368 0.54445815 -0.051659822 0.5436709 0.1675845 -0.6771775
0.19493012 -0.032575052 -0.08900434 0.019476403 -0.04291536 -0.48031738 -0.015211394 -0.02690902
0.27567756 -0.05363697 0.08096373 0.111483485 0.16034998 0.23783085 0.08468911 0.28485
0.25726944 0.19863328 -0.1672503 -0.19820292 -0.012572572 -0.17295821 0.0342772 -0.038988553
-0.008081319 -0.15522245 0.18679702 -0.17287616 -0.20239003 0.18722486 -0.11426468 0.16950089
0.18238121 0.067692034 0.2327154 0.05884792 -0.0027336606 -0.07217798 0.073041566 0.10838733
0.08416264 -0.10465612 0.03579695 -0.033769567 0.10853285 0.08745859 0.12864724 -0.2045212
-0.23107253 0.03157813 0.06823084 0.15162174 -0.14353356 0.054308675 -0.041153017 -0.015586906
-0.16621925 -0.08780672 -0.035063215 -0.11578199 -0.25076738 0.1750091 -0.07054743 0.28409564
0.1125553 -0.13130607 -0.23544197 0.18310991 0.17531103 -0.18818411 0.06634794 -0.03234554
-0.08753444 -0.03752126 -0.08745052 -0.07491685 0.007436833 -0.18732588 0.27451253 -0.11503853
0.1119288 -0.09641328 -0.1539826 -0.261937 0.11595527 0.090733945 0.023024688 0.22575606
-0.1504085 0.20657426 -0.3097654 0.042460613 -0.23063155 -0.003986481 0.04279204 0.0317367
-0.2083317 -0.27325034 0.019414237 -0.06283881 -0.13996343 -0.1626834 0.107175596 -0.14539087
0.031708907 0.05632568 0.28351 -0.10528743 -0.087104425 -0.042801134 0.017694792 -0.2904415
-0.19521947 0.24488157 -0.24753174 -0.14452733 0.014844705 -0.15240516 -0.11792402 0.21021558
-0.0176521 -0.24216492 0.1689355 -0.09280397 0.1688785 0.17389691 -0.03696866 0.13531546
0.13250478 -0.025011005 -0.053174112 0.12518543 0.12949526 0.2754829 -0.25509182 0.04244556
-0.2513689 -0.095583156 -0.013673825 -0.13787018 -0.06595666 0.19216661 -0.0728337 0.18626393
0.17794707 -0.18451777 0.15762633 -0.016979976 0.010266535 -0.19232239 -0.12738153 -0.19022618
0.098362714 0.038319398 0.15986435 0.2299427 0.015582617 0.2396277 0.12581617 -0.06950888
-0.12747927 0.19397931 0.19424367 0.01035094 0.0037535366 -0.209282 -0.23582077 -0.2638752
0.23814191 -0.21835645 0.23936336 -0.1355804 -0.06795036 0.20755707 0.19137904 -0.014064345
-0.3546073 0.030250592 -0.22780499 0.046812043 -0.20579648 -0.103731155 -0.13250124 0.09986378
0.06539869 0.18641378 0.44178024 0.19874631 -0.023748184 0.33957928 -0.09798057 0.10135006
-0.23644781 -0.079529785 -0.1825957 0.010647574 -0.1266791 -0.3015329 -0.17015682 -0.055853944
-0.22199835 0.13953076 0.35220155 0.2982733 0.17155524 0.020171827 -0.037466213 -0.056268588
0.17346443 -0.04559972 0.2056292 0.13192794 0.116062164 0.21379036 0.1699508 0.20701326
-0.23437534 0.28017807 -0.026042225 -0.2384473 0.08849829 0.08384649 0.011810807 -0.012789859
-0.21860267 -0.28778538 -0.03831404 -0.017182766 -0.3939403 -0.07223032 -0.062155984 -0.2603689
0.29131588 -0.14158386 0.2748184 0.12508307 -0.14044012 -0.14398636 0.29072422 -0.059478693

bias_ih_l0_reverse f4 [48]
00000000: a74b e33d bda3 87be aa64 2fbd 8e48 073e
00000010: 8cf0 0dbc aa43 82bd 9d86 053e 485d 8f3e
00000020: b8d5 78bd 92ec 7ebd 36d7 69be fe66 1bbe
00000030: 77e4 103d 1ca2 f33e 35e3 21be 2555 ddbc
00000040: 4fe3 09be c5eb 75bd ca2c 3f3e d145 74be
00000050: 329f 9d3d 1b31 453d ad6a 1b3c 8776 093e
00000060: 0f6c 0f3e e201 033e affa 22be 9277 cbbc
00000070: 9905 c3bd 11c1 493e 8846 34be 8dc6 583e
00000080: 4943 2cbe 74c9 e7b5 db7b 0bbc 16a4 20be
00000090: 193b dc3a 1efd 46bd a980 ac3b 3773 953d
000000a0: 29cd 67be 54ae cd3d 5673 503e 0768 d43c
000000b0: 511c a63a e14f 0f3e e510 7abe 86eb 19be
0.11098414 -0.2649211 -0.04282061 0.13211271 -0.008663308 -0.06360562 0.13039632 0.28000855
-0.060750693 -0.06223733 -0.22836003 -0.15176007 0.03537413 0.47584617 -0.15809329 -0.02701814
-0.13465618 -0.0600393 0.1866943 -0.23854758 0.0769638 0.048142534 0.009485883 0.13424121
0.14006065 0.12793687 -0.1591594 -0.024837289 -0.09522552 0.19702555 -0.1760503 0.21169491
-0.16822542 -1.7269472e-06 -0.008513416 -0.15687594 0.001680228 -0.048581235 0.005264361 0.07297366
-0.22636856 0.10043016 0.20356497 0.02592851 0.0012673234 0.13995315 -0.24420507 -0.15031251

bias_hh_l0_reverse f4 [48]
00000000: 234f 18be 1439 4cbe 0b49 083e d38c 963e
00000010: 9443 403e 0f47 b5bc 9970 5abe 30e4 a6bc
00000020: 870c 9d3d 00db bebd c647 0a3e 5294 05be
00000030: 15f3 f13d f5a4 c03c 7f03 8bbd 4e9c de3c
00000040: 6445 86bd 2fc9 56be 160e 013e 4723 38bd
00000050: 8432 8e3e 698d 76bd 9ff7 97be 5f88 a03c
00000060: 01df 1b3d cfd0 ccbd dfd2 0d3e 6cd8 27bc
00000070: f829 7d3e 79bf 5a3d c773 913e 48cb a93e
00000080: 2028 7bbe 90a0 99bd 2781 3a3e c72e 9fbe
00000090: cd37 6f3d b682 36be d013 883e 7a23 7fbe
000000a0: 95dd a6bd 0c25 d33c 49e1 a93d 153f a73d
000000b0: b72f 9fbd cc06 a8bd a59f 4cbe 7785 f23d
-0.14873938 -0.19943649 0.13309114 0.29404315 0.18775779 -0.02212861 -0.21332015 -0.02037248
0.07668405 -0.09319115 0.13503942 -0.13044861 0.11813942 0.023516158 -0.06787776 0.027174141
-0.06556204 -0.20975183 0.1260303 -0.044955518 0.27772915 -0.060193453 -0.29681107 0.019596277
0.03805447 -0.100007646 0.13849972 -0.01024447 0.24723041 0.05340526 0.28408644 0.33162904
-0.24527025 -0.07501328 0.1821333 -0.31090376 0.058402825 -0.178233 0.26577616 -0.24915877
-0.08147732 0.025774501 0.08294923 0.08166329 -0.07772773 -0.082044214 -0.19982775 0.11841863

weight_ih_l1 f4 [48, 32]
00000000: b4cf 713d 3c36 a4bd f701 01be b9ce ddbd
00000010: 1c58 4abe 82d6 98bd ff31 713d 6dfe f53c
00000020: 236c 0e3e 0633 44bd efab eb3c ac47 f63d
00000030: 67f7 dd3c b938 303e a643 a9be 71ba 953d
00000040: 7bf4 05be 9096 17be 2f94 d33e 3100 03be
00000050: ebd1 1cbe fd46 7e3e e4fe 5a3d bf82 203e
00000060: 257e 083e 60d3 36be b2bc 6d3e 475a cfbd
00000070: 91d2 073e 39d5 993e 49b1 44be 1b6c 743b
00000080: db50 ad3d 2662 e5bc 8bc3 a2be 5da5 e7bd
00000090: 1eea 363e 77a4 813e f5e0 d53d 8421 fdbd
000000a0: 428e 5e3b 01c6 d8bc 3334 2dbe 8ca4 d03b
000000b0: 156c 09bc ee85 9fbe 1108 b9bd bf2a bcbd
000000c0: d049 7b3e bab9 483e 3b12 f2bd 11ef 793e
000000d0: f229 663e 4b8a 8fbc 0684 893c 4d02 b83c
000000e0: ea2d 1d3e 4b9b e3ba e46e 05be a368 2dbe
000000f0: 1ffb 00be 9e91 7abe 84ec fb3d 25eb 81bb
00000100: cd15 543e 9eef 373e 4baa 0abe 59bb 7e3e
00000110: 10e2 e1bd ae67 0cbe 2161 353e 5dbb a6be
00000120: cca7 413e 169b 3c3e 4ee7 07be 6fb6 283e
00000130: 668d d7bd f4c6 fabd 8051 4abe 800b 293e
00000140: 8eef 1f3e e716 713d 8892 8ebe 9daa d9bd
00000150: a27c 76bc b7bb 54be 74b1 8dbc 9592 36be
00000160: 6ba1 e73d 3523 3d3c 8f1b 8fbe fce3 ebbd
00000170: 6093 6d3e bd86 1dbe 3d20 553e d16e 913e
00000180: 5472 3f3e 56ef 00be f4fd a43e ff39 28bd
00000190: 06a2 d5bd efd6 c8bd 6eed b43e 578d 1abd
000001a0: f1d8 0c3b 8e67 413e 5923 81bd accd 36be
000001b0: 4e7a d13d fbd7 83be 3bbb 75bd de77 fdbd
000001c0: 2d50 383e e4fd aa3d 3f90 783e d5cb 943e
000001d0: 15a8 7dbe ec81 50be 36d3 53be 9bc2 a03d
000001e0: a7d1 a93d 819c 7dbe 60e1 6a3e d8a3 0cbc
000001f0: 37b9 cf3d 02cd ccbd f1a6 8ebd 1e75 333e
00000200: dd3a 11bc dbc4 b4bd 49a9 833e 282d 493e
00000210: 4bd6 303e 7f17 84bc b530 4abd e8c5 c4bd
00000220: 425a c5be 7170 2f3c 9648 2fbe 79c1 0f3e
00000230: 706d f53d 3634 b7bc 3965 293e 34b7 833e
00000240: 7710 e3bd be76 33be c4dc 50be 9224 8f3e
00000250: fe0f 90be 6398 60be 3935 1ebe c20b d7be
00000260: f721 b53e 4559 0cbd 6830 9c3d 3f6b a33d
00000270: b6d6 2dbe 8624 1bbe 74ed ce3e ee8e cdbd
00000280: 5a2b 503e b7eb 80bc 98d3 2fbe 4356 553d
00000290: 3267 f53d 7bf1 a9bd 5401 8fbd ff00 34be
000002a0: 2766 5dbe 242a 3f3e cd22 9ebc 0ec2 95bc
000002b0: 88bd 5abe bfdb bcbd c3ab 1e3e 2d75 e83d
000002c0: 9a69 bd3d 0da7 533e 578f 87bd c725 573e
000002d0: 3ccf c43d 468c cd3d d50c 95be b282 743d
000002e0: dc50 5fbb aa7f 28be ea41 89bd 67c3 c7bd
000002f0: 0a3a 2e3e 9967 2a3e 9963 1c3e aac3 1dbe
00000300: df55 de3d df78 b63e 7ab3 b8bd 9833 cf3d
00000310: 7c4c 6a3e 5a87 6f3e 9995 363e 5993 1d3e
00000320: 4fcc 363e 85cd ad3d 8900 e63d 3ac8 f4bd
00000330: 70a4 e03d 3f99 b03d 7870 abbe 9850 7b3d
00000340: 74f6 0e3d ecb7 753e f0f5 363d 4fb0 193b
00000350: 9bd1 633c 8ccd 073e 3230 05be e684 453d
00000360: 3901 cb3c 8853 143d 1139 1c3d 9ec4 17be
00000370: fb5a 2c3e f595 0d3c 8c5f 37bd 8f26 8f3d
00000380: 753a 8dbe b8c4 fd3e 5499 52be f581 66bd
00000390: 3065 28bd e6d3 8b3d 2b73 313d 4bb2 363e
000003a0: df0a 76bd ae1b 7a3e 90ce 75be 067c a0bc
000003b0: 6636 d13d e628 053e 27e2 13be fe1c 72be
000003c0: f196 843e 3d11 553e 1a5e d9be 539b 3cbe
000003d0: e231 b43d bdc4 e63c 7f01 133e f346 bf3d
000003e0: e2fc 253e 6be2 28be a6a9 6c3d 16b9 20bd
000003f0: c9d1 5b3e 742c 10be ba41 913e ed31 223e
0.05903597 -0.08018157 -0.12598406 -0.10830445 -0.19760174 -0.07462789 0.05888557 0.030028546
0.13908438 -0.047900222 0.028768508 0.12025389 0.02709551 0.17209138 -0.33059424 0.073109515
-0.13081543 -0.14803529 0.41323993 -0.12793042 -0.15314452 0.24831767 0.05346574 0.15674876
0.1332937 -0.1785407 0.23216513 -0.10124641 0.13263918 0.30045488 -0.19208254 0.0037295881
0.084626876 -0.028000902 -0.31789812 -0.113108374 0.17862746 0.2532079 0.10443298 -0.12359908
0.0033959304 -0.026461603 -0.16914444 0.0063672718 -0.008387585 -0.31156868 -0.09034742 -0.09187841
0.24539876 0.19602099 -0.118198834 0.24407603 0.22476938 -0.017521998 0.016786586 0.022462035
0.15349546 -0.0017365006 -0.13030583 -0.16934447 -0.12595795 -0.24469611 0.12300971 -0.003964799
0.20711441 0.179625 -0.13541524 0.24876155 -0.11029446 -0.13711426 0.17712833 -0.32564822
0.18911666 0.18418536 -0.1327183 0.16475843 -0.105250165 -0.122449785 -0.19757652 0.16508293
0.15618727 0.058859732 -0.2784617 -0.10628245 -0.015044363 -0.20774733 -0.01729653 -0.17829354
0.11310085 0.011544039 -0.27950713 -0.11518094 0.2320075 -0.1538343 0.20813079 0.2840486
0.18695956 -0.125913 0.32225 -0.041070934 -0.10431294 -0.0980662 0.35337394 -0.03773245
0.0021491612 0.18887159 -0.0630557 -0.17851895 0.10228406 -0.25750718 -0.05999301 -0.123763785
0.17999335 0.08349207 0.24273776 0.29061761 -0.2477115 -0.20362061 -0.2068604 0.07849618
0.08291941 -0.24766733 0.22937536 -0.008583985 0.10142749 -0.1000004 -0.06965435 0.17525145
-0.008864132 -0.0882661 0.25715092 0.19646132 0.17269246 -0.016124485 -0.049362857 -0.0960806
-0.38545424 0.01070796 -0.17117533 0.14038648 0.11983764 -0.022363763 0.1654252 0.2572571
-0.11087125 -0.17525765 -0.20396715 0.27957588 -0.281372 -0.21933131 -0.1544999 -0.42001158
0.35377476 -0.03426482 0.0762642 0.0797944 -0.16976437 -0.15150651 0.40415537 -0.10037027
0.20329037 -0.015737398 -0.1717056 0.05208422 0.119825736 -0.08298012 -0.06982675 -0.17578505
-0.21621 0.18668419 -0.019303704 -0.018281009 -0.21361363 -0.09221601 0.1549521 0.113504745
0.092486575 0.20669194 -0.06619137 0.21010505 0.09609839 0.10036521 -0.29111353 0.059694953
-0.0034075296 -0.1645495 -0.06702025 -0.09754067 0.17014328 0.16641082 0.15272368 -0.15406671
0.10856222 0.35639092 -0.090186074 0.101172626 0.22880739 0.23391476 0.17830504 0.1538824
0.17851375 0.08486465 0.11230571 -0.11952253 0.10968864 0.086229794 -0.33484244 0.061356157
0.034903005 0.23995942 0.044668138 0.0023451035 0.013904954 0.13262004 -0.13006666 0.048222445
0.024780856 0.036212474 0.03814036 -0.14821097 0.16831581 0.00864171 -0.044768855 0.06989776
-0.27583662 0.49564147 -0.20566303 -0.05627628 -0.041112125 0.06827526 0.043322723 0.17841451
-0.06006896 0.24424621 -0.24004579 -0.019590389 0.10215454 0.13003883 -0.14441739 -0.23643872
0.2589641 0.20807357 -0.42454606 -0.18418626 0.08798577 0.028169984 0.1435604 0.09339704
0.16209748 -0.16492622 0.057778977 -0.03923901 0.21466745 -0.14079458 0.28370458 0.15839358

weight_hh_l1 f4 [48, 16]
00000000: 038f c13c a3ce 903e a50a 573e b0d9 70be
00000010: ab66 7fbe 3c5f 2dbd b0c2 673c dcb6 233e
00000020: 4be9 283d 243d 313e 4885 4c3e 5c07 72be
00000030: 3a24 57bd 347a fc3d 635e 843d 9490 fe3d
00000040: 4141 2e3e 45af 003e 2aa7 6a3e d0a1 6cbe
00000050: 46a0 863e e6d9 a93d fe78 20be 1292 d73d
00000060: f97d 2e3e 01e2 7ebd f6cf 073d 7c0b 66bb
00000070: 451f 94bd 8686 333d a334 0c3e 123d e1bd
00000080: c430 fcbd e02c 743e 54c4 05bd 10b7 dd3d
00000090: edef 1c3c 8e05 0f3b 1ee7 50be c6e0 843d
000000a0: 5845 823c a9c9 08be f570 59be 6643 93bd
000000b0: 4eb6 823d e5ea 283e e2da 273e 6272 5e3b
000000c0: b0e2 bd3d b6a2 f33d 0d51 15bc 63ce 1d3e
000000d0: d967 28bd 5e96 273e a872 77be bd8e 0fbc
000000e0: 3583 97bc 7985 62be a153 563d c3bb b8bd
000000f0: 2b83 9abe a2ce 8bbd 0208 353e d5b6 56bd
00000100: 0c76 b1bd c77c 88be 3e5a f5bc cf0c 78bc
00000110: 6532 8b3e 9c04 6bbe b831 a7bc 63c7 903d
00000120: 65dd 6b3d ba8e 7b3d 580b 2dbe c539 003d
00000130: 262f 38be f80e ee3d dfc2 873e ca91 8e3d
00000140: fcc6 623e 618a 403d 4cae 783e 11e0 8cbe
00000150: 359b 5e3d 175d 60be 108d 19be 3448 66be
00000160: 083c 163e 6c63 28be 1d77 8d3e 29ea 6abd
00000170: 29ad 9dbe f2bd 3cbe 49e4 433e 2c79 aa3c
00000180: 3ffd d7bd c16d b93d a5cd e83c 4fda 8bbe
00000190: 6983 0f3e b642 21be ff85 6ebd 64ae 2dbe
000001a0: e9dd 95bd b294 683d 5dfb 753c 4d86 f2bc
000001b0: 2d24 afbe cb3b 5b3e d9f4 5f3e 3bde 3bbc
000001c0: 8dc0 803e 55f9 8dbd 3922 fbbd 16fc ad3d
000001d0: 6868 8f3e 9d4d 30be fbe2 45bd 843d 803e
000001e0: 71f0 18be f6dd 51be 35ea d33c 2851 903e
000001f0: 9481 afbe fe7f 603e 986b e53d e53a dc3d
00000200: 4f6e 393e a77a 043e 3f25 20be 7f50 51be
00000210: 7675 01be 0140 9abd 0154 fcbd 602d 16be
00000220: 6b3f cebd ca7b 76be 5d76 7a3e 8f6c 04be
00000230: 72c8 73be 5cef 2e3e 7e15 a4bd f8af cdbd
00000240: 02c8 4c3e 33f9 69be d5b9 5dbe 8ef5 3fbe
00000250: a94f 03be 120d d13d a4be b9bd 6f11 1e3e
00000260: 4057 2b3e 5ab4 a53e dd6a 3ebd fda7 afbd
00000270: 0234 f0bd db42 83be 46d8 93bd 18e8 b63d
00000280: 061f 853e 6a16 90bd be82 36be 49b7 b13c
00000290: 8831 81be 9992 7d3d 888f 533e bda9 ea3e
000002a0: 3951 4b3e 6731 dbbb 81bc 85be a85d 283e
000002b0: 2fd9 22bd 0c17 86bb 1ee6 ec3d 2580 4fbe
000002c0: 86bb bebd 212a 363c 07ac 0d3e d025 1abe
000002d0: bd0e 293e 80a1 33be eaa5 19be f86e ff3d
000002e0: 18a2 00bd 8693 703e aea3 4c3b 38d6 d53d
000002f0: c05a 99bd eda7 d3bd 077c ef3d 07f2 aebd
00000300: 06ef e43d f985 ec3e e025 083e b4f0 253d
00000310: 7e86 05be 8fd2 2abe b693 0f3b a522 a33e
00000320: 8abc 8b3e 0c19 13be 206c 1b3d 0043 05bd
00000330: 8c02 f13d 65f0 413e ebc7 d5be d3b5 a6be
00000340: 5ba2 133d 3a80 7a3c 2c98 673e 8034 a3bd
00000350: 3108 15bd e6c8 e7bd 7b56 75be 73ad b03e
00000360: f250 7f3e 315c 713e e944 51bd b546 deba
00000370: 8c2e febd 19d4 37be 2618 663e 55f7 a83d
00000380: 79d3 c2bd caa8 cc3e 7054 4f3e 9cf9 95be
00000390: b360 473e d0c1 92be 8e00 a9bd 322e 063e
000003a0: 94ca 253d 773e bb3d 4b79 243e d296 df3d
000003b0: f2a7 8fbd d5a5 f7bd d1ab 433e d346 d4bb
000003c0: 27cd 8bbd 6f63 25bc 1a26 34be ac8c 2dbe
000003d0: f358 4dbd 588b 363d c588 2bbe 3b7c 7c3e
000003e0: 1e11 f33c d838 5ebe a80e 81be 4984 953e
000003f0: ace7 a1be 6d90 1b3e 436b e5bd ceaa 7c3c
0.023627764 0.2828265 0.21000154 -0.23520541 -0.24941508 -0.04232715 0.014145538 0.15987724
0.04123811 0.1730848 0.19972718 -0.2363562 -0.052524783 0.12327996 0.06463315 0.1242992
0.1701708 0.1256686 0.2291533 -0.23108602 0.26294154 0.08293514 -0.15671155 0.105259076
0.17040242 -0.062227253 0.03315731 -0.003510206 -0.07232527 0.043829463 0.13691954 -0.10997976
-0.12313989 0.23845243 -0.032657936 0.10825932 0.009578687 0.002182338 -0.20400664 0.06488185
0.015902206 -0.13358177 -0.21234496 -0.071905896 0.06382428 0.16495855 0.16392091 0.003394269
0.09271753 0.11896269 -0.009113562 0.15410762 -0.04111466 0.16365954 -0.24164832 -0.008762059
-0.018495182 -0.22121228 0.05232585 -0.09020188 -0.30178198 -0.068265215 0.17678836 -0.052420456
-0.08665094 -0.26657698 -0.029950257 -0.015139773 0.27186885 -0.22950977 -0.02040945 0.0706928
0.057584185 0.06141541 -0.16898859 0.031305093 -0.17986736 0.11623949 0.26515862 0.06961401
0.22146219 0.04700697 0.24285239 -0.275147 0.054347236 -0.21910511 -0.14995217 -0.22488481
0.14671338 -0.16444176 0.2762994 -0.05735222 -0.30796173 -0.18431833 0.19130053 0.020809732
-0.1054635 0.09054137 0.028418371 -0.27314994 0.14014973 -0.15748104 -0.058233257 -0.16961056
-0.07317717 0.056782432 0.015013543 -0.029605055 -0.34207287 0.21409528 0.21870746 -0.011466558
0.25146905 -0.06932322 -0.12262387 0.08495347 0.28009343 -0.17217107 -0.04831217 0.25046933
-0.14935471 -0.20494828 0.025868515 0.28186917 -0.34278548 0.21923825 0.112021625 0.10753421
0.18108486 0.12937413 -0.15639208 -0.20440863 -0.12642464 -0.07531739 -0.1232071 -0.14665747
-0.1007069 -0.2407066 0.24459215 -0.12932037 -0.23806933 0.17083496 -0.08011912 -0.10043329
0.19998172 -0.22848968 -0.2165292 -0.18746015 -0.12823357 0.10207571 -0.09069565 0.15436338
0.16732502 0.3236416 -0.04648863 -0.08576963 -0.1172867 -0.25636944 -0.07218985 0.08930987
0.26000232 -0.07035525 -0.17823312 0.021693842 -0.25233102 0.061907385 0.20660222 0.45832625
0.19855203 -0.006689239 -0.2612038 0.16441977 -0.039757904 -0.004092103 0.11567329 -0.20263727
-0.09313111 0.011118443 0.13835154 -0.15053487 0.16509528 -0.17542076 -0.15004697 0.124723375
-0.031404585 0.23493776 0.003122549 0.104412496 -0.07488012 -0.10334764 0.11693578 -0.08542257
0.111784026 0.46195963 0.13295698 0.040512756 -0.13039586 -0.16681884 0.002190811 0.3186237
0.2729228 -0.14365023 0.037944913 -0.0325346 0.11768064 0.1893936 -0.41754088 -0.32560596
0.036043506 0.015289361 0.22616643 -0.07968998 -0.036384765 -0.11317615 -0.23958771 0.3450733
0.24933222 0.23570324 -0.05109111 -0.0016958328 -0.12411222 -0.17952003 0.2247015 0.082503
-0.095129915 0.39972526 0.20247054 -0.29292 0.19470482 -0.28663492 -0.08252059 0.1310356
0.040476397 0.091427736 0.16061895 0.109174386 -0.07014455 -0.12092177 0.19108512 -0.0064781695
-0.06826239 -0.010094508 -0.1759266 -0.16948193 -0.050133657 0.044566482 -0.16751392 0.24656765
0.029671248 -0.21701372 -0.25206494 0.29202488 -0.31622064 0.15191813 -0.11202099 0.015421582

bias_ih_l1 f4 [48]
00000000: 282f 853d 9d71 98be fbe3 3b3e 91ec 3c3e
00000010: 6184 d3bd d0cd 70be 66c3 2bbe e391 1a3e
00000020: a6af 68be 0108 48be 4dfd 433e abc9 41be
00000030: 8bfe 4e3e ed1c 813e dd05 1bbd 4d6c 413e
00000040: 0f5b 2cbe 320d 4e3e 633b 55bd 9f26 66bd
00000050: ed80 1fbd d7af 0a3d 4614 a13b d844 9abd
00000060: c53d 05bd 7142 9cbc c555 99be 6137 cfbe
00000070: d6eb 9abe 0f3d 4abe 037b 9cbe fb37 28be
00000080: 38e3 a7bd 25e8 83be cfca 27be 45a2 a33e
00000090: af48 803e b8d0 003e fbdb d83d 3508 34be
000000a0: f763 e9bd 5b41 0d3e 2326 43be 2118 373e
000000b0: fcc0 4b3e 6687 01be 1795 9b3e de43 1a3d
0.06503135 -0.2977418 0.18348686 0.18449618 -0.10327984 -0.23516011 -0.16773757 0.15094714
-0.22723255 -0.19534303 0.19139595 -0.18924586 0.20214288 0.2521738 -0.03784739 0.1888897
-0.16831611 0.20122221 -0.05205859 -0.056189176 -0.038941313 0.0338591 0.004915747 -0.07532662
-0.03252961 -0.01907465 -0.2994825 -0.40471938 -0.30258054 -0.19749855 -0.305626 -0.16427605
-0.081976354 -0.2576305 -0.16385959 0.3195974 0.25055453 0.1257962 0.10588833 -0.17581256
-0.1139602 0.13794462 -0.19057517 0.17880298 0.19897836 -0.12649307 0.30387184 0.03766238

bias_hh_l1 f4 [48]
00000000: 7235 173e 2906 41be 2853 2b3e a57a 313e
00000010: ee31 0abe 7b6f a5be ee2b bfbd 28fb f23c
00000020: ca4e d73d cab1 f0bd 3d20 3c3d 528d 893e
00000030: 79a1 373e 3fa8 12be be27 b13d 29cf 38be
00000040: 94c0 013e fa17 bf3d 2001 07be a3e9 c8bd
00000050: 426f 253e 2729 f2bd 456b 68be 9867 d03d
00000060: f7d5 463e a4bb cb3d 01ac 56bc c8f6 94be
00000070: afdb dd3d 55dc b7be a18f 20be adc9 fa3c
00000080: 4cf2 39be fa8f ab3d 88ad e5bd b508 8e3e
00000090: 9c75 98bb d051 00be 9c94 28be fb3d a8bd
000000a0: dfb4 57be d892 8dbd 8e28 d93d f756 4f3e
000000b0: 8e77 38bd 439d 893b 70fd dbbb 8275 e6bc
0.14766482 -0.18850006 0.1673094 0.17331941 -0.13495609 -0.32311615 -0.09334551 0.029660776
0.10513075 -0.117526606 0.045929182 0.2686563 0.1793269 -0.14321993 0.08650158 -0.18047775
0.12671119 0.09330745 -0.13184023 -0.09810188 0.16155723 -0.118242554 -0.2269717 0.10176009
0.19417559 0.09947899 -0.013102532 -0.2909453 0.10832917 -0.35910287 -0.1567979 0.030613745
-0.18158835 0.08377071 -0.11214739 0.27741018 -0.004652692 -0.12531209 -0.1646294 -0.08214947
-0.2106509 -0.06912774 0.10603438 0.20248018 -0.04503589 0.0041996553 -0.0067135617 -0.028132204
