src/modelos/gru/gru_sel.pt (torch, 12984 bytes, 15 tensors)

weight_ih_l0 f4 [24, 14]
00000000: a19e c73e 8b97 17be d343 d0bd 6918 8abe
00000010: 5561 babd 494a 243e 00c4 49be 6884 913d
00000020: 3231 26be 3f75 85be 2cea 9c3e f340 02be
00000030: 4f18 133e 2f7f 013e 7bd2 8e3d 1acc f73c
00000040: 7827 3abd fd5e 69be d245 0e3e a058 0a3e
00000050: 36a8 cebe 447a 9dbe 57cb 9c3d 1bc8 78bd
00000060: d95f 963e 8461 9dbe 8b16 fe3d acf7 00be
00000070: b575 323e a4ff 21be 0e0c a2be e272 5bbe
00000080: d5e1 99bd cdc9 b93d 82ef 62be c479 5cbe
00000090: b164 383e d5e1 cdbd 31ec 873d bc19 30be
000000a0: 6897 2a3e 1caf bb3c 8de1 88be f575 98be
000000b0: fd74 3f3e e3ff b53e a236 513e 902f a8bd
000000c0: b769 bcbe 43c2 03ba 7b1e 95bc 0809 683e
000000d0: 7901 94bd d85b 263e 6376 0dbe 49a7 63be
000000e0: 588d 65be 0ae3 d6be 4851 86be 4a89 5a3e
000000f0: b0ba 25be ab0d c93d d4db 613e 72da cabd
00000100: c78d 8fbc 4c41 ed3c 2794 aa3d 2c99 d7bd
00000110: 2fce 26be 94c8 49be 1b01 72be 9979 203d
00000120: b7cc a9be 8a6c b63d 782e 32be e5e1 be3c
00000130: 7d84 273e 2e0e 9bbd 1706 cbbe 24b3 d73e
00000140: a83f f0bd 5e83 d4bd 6c4a aebc 91ad 9dbd
00000150: 2214 f43c 072a 50be 6487 9fbe 6b88 8ebe
00000160: 9f28 9bbe f722 7dbe 7e50 68be 1102 183c
00000170: 1d5e 2dbe a49e 213c 124b a6be 133a 35bc
00000180: 2d24 063d a22c 383e 1a93 20be 15ab 94be
00000190: 32f9 b13e b224 343e 3750 81be 1b4e 9fbe
000001a0: 95b5 b3be 535b 313e e819 bf3d df65 b03d
000001b0: df7b eabc 5c74 a7be c8bf 7abe 6d57 ecbd
000001c0: aaf4 c5bc fb48 6d3e 66d8 623e 9a57 9d3d
000001d0: 65b0 9f3d afa0 433e 1f31 823e 228f 26be
000001e0: 4d00 303e b598 1dbe c024 8dbe 69a8 38bd
000001f0: a056 a7be 10f6 dd3e bba8 86be 855b cdbc
00000200: 17e1 3ebe 9ee5 33be 1e6a 95be d888 59be
00000210: f1cb 48be 295c 89be 7d25 fa3d f6b6 003c
00000220: 2712 123e 2187 6fbe 3778 3e3e aad6 b43c
00000230: cfa0 eebd ca08 1abe bd7d 0abd 5b5d 03be
00000240: 3062 87be bc5b e4be d79b b0bc 8d82 133d
00000250: 6975 7cbd 40e2 9c3d fa67 963d 733c 4fbd
00000260: 3a8b d23d 4440 7e3e 85cc f9bb b283 56be
00000270: 0961 923e 5ae2 5e3e 6245 00bd f734 b93d
00000280: 7e2b 75be e6f3 a13e a9b0 cebd 2625 ae3e
00000290: bcf3 2c3e ceb0 12bd 9003 f3bd 4d51 463e
000002a0: dbbd ef3c 52ea 053e 5036 f8bc e395 883e
000002b0: eed3 153e b7d8 0fbe 5a48 803e 71b1 563e
000002c0: 20ed c9bc b20d 9a3d d100 333e 3cc6 44bd
000002d0: a424 87bc eb81 ba3d 1f91 363a 5b46 5bbe
000002e0: 1aee e6be 866a 2fbd 6212 ecbc 0eb8 6cbd
000002f0: 5a59 09be 43db f5bd 1adc 0f3e e3f4 a63d
00000300: c483 bfbc 3018 4b3c 1e21 fb3d ba2b 15be
00000310: 62f8 9f3d c9e4 d4bd 92a6 1fbd 757b 8c3b
00000320: 14e3 b9bd 8913 1b3e b173 6fbe ea26 143e
00000330: 7ad7 bb3d 4330 e63e 59f1 8bbe aeaa 3a3a
00000340: a58a 10be 7a86 0f3e ccbd 10be 451a 7d3e
00000350: 2568 d23d 3758 31bd db55 993c 4b56 99be
00000360: 93d0 c7be 9e3a 3ebe a8e7 c83e 457e b73e
00000370: 3b32 74be 37ac 503e 6db1 433d c065 213e
00000380: 7775 51be f95c 6bbe c63f 30bd 37a3 30be
00000390: 2f08 e5be d720 a8bd d806 703e 5b76 96bd
000003a0: def3 f0bb 1555 463d 3d20 4e3e 9708 b53e
000003b0: 0e4f ffbd be88 5abe 0ccf 67be 747c bdbe
000003c0: 2c3d 7b3d e7db 0cbd 74ac d0be 473f a5be
000003d0: d69d 73be 7e72 7aba 7c67 b13d 109c 32be
000003e0: db25 4dbe 674d 6e3e f934 663e dbf9 813e
000003f0: 155a 233e 2ec2 efbc 119b 443d bfbb c2bd
0.38988212 -0.14803903 -0.101691864 -0.26971748 -0.09100596 0.16043963 -0.19703674 0.071053326
-0.16229704 -0.26066014 0.3064741 -0.12720089 0.14364742 0.12646173 0.0697374 0.03024869
-0.045447797 -0.22790141 0.13893822 0.1351037 -0.4036271 -0.30757344 0.076559715 -0.06073771
0.2937 -0.3073846 0.124066435 -0.1259448 0.17427714 -0.15820175 -0.31649822 -0.21430543
-0.07513777 0.090716936 -0.22161677 -0.21530825 0.1800716 -0.1005284 0.06636847 -0.17197317
0.1665932 0.022910647 -0.26734582 -0.29777494 0.18696971 0.3554679 0.20430997 -0.08212197
-0.36799404 -0.00050262007 -0.01820301 0.22659695 -0.072268434 0.16245973 -0.13814692 -0.22231783
-0.224172 -0.41970092 -0.26233888 0.21341434 -0.16184497 0.0981706 0.22056514 -0.099049464
-0.01752366 0.0289618 0.08329039 -0.10527262 -0.1628959 -0.1970542 -0.23633234 0.039178465
-0.33163998 0.08907421 -0.17400539 0.023301074 0.16359134 -0.07571064 -0.39653084 0.4212886
-0.117308915 -0.10376619 -0.021275721 -0.07699121 0.029794756 -0.20328532 -0.31157982 -0.27838454
-0.3030443 -0.2472037 -0.22686955 0.009277836 -0.16930433 0.009864483 -0.3247915 -0.011061209
0.032749344 0.17985776 -0.15681115 -0.29036775 0.34760433 0.17592123 -0.25256512 -0.31114277
-0.35099474 0.17319994 0.09331113 0.0861318 -0.02862352 -0.32705963 -0.24487221 -0.11540113
-0.024164516 0.23172371 0.22152862 0.07682724 0.077973165 0.19104265 0.254281 -0.16265538
0.17187615 -0.15390284 -0.275671 -0.045082483 -0.32683277 0.43351793 -0.26300606 -0.025068054
-0.18640552 -0.17568061 -0.29182523 -0.21243608 -0.19609047 -0.26828125 0.122141816 0.007856121
0.14264737 -0.23391391 0.18600546 0.022075016 -0.116517656 -0.15042415 -0.03381132 -0.12828581
-0.264421 -0.44601238 -0.021558685 0.036013175 -0.06163541 0.07660341 0.07344051 -0.05059476
0.102804616 0.24829203 -0.0076232576 -0.20948675 0.28589657 0.21766034 -0.03131617 0.09043305
-0.23942372 0.31631392 -0.10092289 0.34012717 0.16889852 -0.035813145 -0.11865914 0.19366951
0.029265335 0.13077667 -0.030299336 0.26676854 0.14631626 -0.14047514 0.250552 0.20966126
-0.024649203 0.075221434 0.1748078 -0.048040614 -0.016496964 0.09106811 0.0006964374 -0.21413557
-0.45103532 -0.042826198 -0.02881736 -0.057792716 -0.13412991 -0.120047115 0.14048806 0.08152177
-0.02337826 0.0123959035 0.12262176 -0.14567462 0.07811047 -0.103952 -0.038977213 0.004287178
-0.09076515 0.15144171 -0.23383977 0.1446797 0.09171958 0.44958696 -0.2733257 0.000712077
-0.14115389 0.14016142 -0.14134902 0.24717052 0.1027377 -0.04329702 0.018717697 -0.2994865
-0.39026317 -0.18577048 0.3923924 0.35838524 -0.23847286 0.20378195 0.04777663 0.15761471
-0.20454966 -0.22984685 -0.04302957 -0.17249762 -0.44732806 -0.08209389 0.2344011 -0.07346793
-0.00735329 0.048420984 0.20129485 0.35358116 -0.1246625 -0.21341226 -0.22637576 -0.37009013
0.061337635 -0.034389403 -0.4075657 -0.3227484 -0.23790678 -0.0009553804 0.08662316 -0.17442346
-0.20033972 0.23271714 0.22481145 0.25385937 0.15952332 -0.029267397 0.047999445 -0.09508466

weight_hh_l0 f4 [24, 8]
00000000: fc09 b3be 6ac9 553e 24e7 0dbe 869d c6be
00000010: e18c 0abe f9c5 84be 54d0 3c3d 3d47 bd3d
00000020: 6fd1 11be edbb 9cbb 18f3 6c3e c101 bebd
00000030: 9284 47be 5a86 c5bd 3c0d 80be 3f8e cebd
00000040: 350e 36bd 4073 6ebe 1ef8 103e 8a6b 6e3e
00000050: 7cdd dc3d ef92 b8be c6bc 99be cb9a 26be
00000060: 1efa b3be 36dd dfbd ea30 73be 3290 09be
00000070: c38f ba3b ce15 073e 20a1 d53c a6f4 cd3d
00000080: cd44 0abc d4a6 d03e af64 02be e0f0 8f3d
00000090: 1b3d 8f3e 875b 0b3d 56d7 01bf 4ce7 28bd
000000a0: be9b 4f3c 836b b9bd b04f 9f3d a0af d2bd
000000b0: 23dc 76bd 082d 1e3e 9a14 bbbc 3084 4e3d
000000c0: 26af a53d 3c3c a13d 213a 30be b476 723e
000000d0: 71d7 d8be 6862 12be f8db 14be e494 a6bd
000000e0: 837a 98be 6d9f f3bd 0d51 fd3d 72e2 1f3e
000000f0: 388e 8abe 3039 113e 3cd0 7a3e a251 613e
00000100: 43d7 32be cc99 ae3e b458 a8be e091 743c
00000110: eca6 73be 48f0 7abe d552 eebd 5a68 87be
00000120: ca5e a5be cad7 a43b 279c 2abe 2d78 85be
00000130: f128 93be fb17 063e 99e8 ad3e 3cca 2e3e
00000140: e251 b23d 1137 cf3e f8fe 16bc 70e5 3c3d
00000150: 0c46 28be 819f d43e e285 1cbe 78f0 2f3e
00000160: 6772 4fbe bedd 7a3e 8bc0 0d3e 65a4 23be
00000170: 8afb b83e 534c 41be 551c 75be 6933 ae3d
00000180: 36d5 933d a852 a8be 7e1e c43d 1dfe 6dbe
00000190: 46f8 203e d244 3e3e 49c4 8abe f249 883d
000001a0: 8292 74be f9f9 37bc 9036 493d 242a 9d3e
000001b0: 4dbf 4abe 513a cabd bca8 b5bd 6236 af3e
000001c0: 30b1 0c3e 5556 d73d d3fb 54be 5ee9 4bbd
000001d0: e5ec 00be d2dd 1fbd dcfd aabe 099b d63e
000001e0: f663 37be 0f35 ea3d 7c0f bbbe c306 0d3e
000001f0: f77e e4bd c378 563e a850 bf3d df29 a5be
00000200: b072 b2bc f0de 443e 7c51 3abd b76c b23e
00000210: 1281 93bd adc7 65be 033b 803e e57d 313e
00000220: cc0f 57be 5061 0dbe 8b39 d53d 30a3 893e
00000230: 6106 9abd 9f25 493b 5c5c 03be 5e5c 81be
00000240: e278 8a3e 48d2 ccbe 0326 f93d 00ad 2dbe
00000250: 9557 5bbd 35c1 3a3c 6801 923d 08f2 5dbe
00000260: 23d4 063e 140d 1cbe c67c e43d 94d6 fb3d
00000270: e9ec 783e c347 e8bd 4195 99be 613c 24be
00000280: 0c4e 313e 5d8c 803e b22b bfbe 32f4 ab3e
00000290: d23c a33e 2398 ca3c 8257 893d 911c bcbe
000002a0: 9ba9 a63e 46d5 4bbe 4524 e73d 33b8 2ebd
000002b0: 83fb 92bd 65ca 2e3e e38d 053d 1577 d9be
000002c0: 8caa 12be 32d0 4b3e 4433 6fbe 14fd 19be
000002d0: 3cee 173e def2 483e fa72 f73d ab60 7b3e
000002e0: 29c7 603e f18e 1f3e 8485 08be d238 7cbd
000002f0: f23f 303e d9df b13e 0473 27be 40b3 5f3e
-0.34968555 0.20877615 -0.13857704 -0.38792056 -0.13530304 -0.2593229 0.046097115 0.09242103
-0.14240049 -0.0047831447 0.23139608 -0.09277678 -0.19484165 -0.09644766 -0.25010097 -0.10085725
-0.044447143 -0.23286152 0.14157149 0.2328321 0.10784432 -0.360496 -0.30026835 -0.16269986
-0.35151762 -0.109308645 -0.23749128 -0.13433912 0.0056934073 0.13191912 0.026077807 0.100564286
-0.008439255 0.4075228 -0.1273372 0.07028365 0.27976307 0.034022834 -0.507192 -0.041236207
0.012671409 -0.09053709 0.07778871 -0.10287404 -0.060268532 0.15446866 -0.022836972 0.050419033
0.080900475 0.07872817 -0.17209674 0.23678094 -0.4235187 -0.14295352 -0.14537036 -0.081338674
-0.2978097 -0.118956424 0.12368975 0.15613726 -0.2706163 0.14181972 0.24493498 0.22003797
-0.17464928 0.34101713 -0.32880175 0.014927357 -0.23794144 -0.24505723 -0.11636893 -0.264468
-0.3229888 0.005030607 -0.1666113 -0.2606825 -0.28742173 0.13095085 0.3396652 0.17069334
0.08707024 0.404717 -0.009216063 0.046117246 -0.16432971 0.41527942 -0.15285447 0.17181575
-0.20258485 0.2449865 0.1384298 -0.1598068 0.3612941 -0.18876772 -0.23936589 0.085058995
0.07218401 -0.32875562 0.095761284 -0.23241468 0.15719709 0.1858094 -0.2710288 0.06654729
-0.23884013 -0.011229032 0.0491243 0.30696213 -0.19799538 -0.09874404 -0.08870074 0.34221178
0.13739467 0.105145134 -0.20799188 -0.049783103 -0.12590368 -0.039029904 -0.33396804 0.41915157
-0.17909226 0.114359014 -0.3653525 0.1377211 -0.11157029 0.20944504 0.09341556 -0.32258508
-0.021783203 0.19225669 -0.045487866 0.34848568 -0.072023526 -0.22439452 0.25045022 0.17333181
-0.2100212 -0.13806653 0.10411366 0.26882315 -0.07520748 0.003069259 -0.12828201 -0.25265783
0.2704535 -0.40004182 0.12165453 -0.16960526 -0.05355032 0.011398603 0.071291745 -0.21674359
0.13166861 -0.15239364 0.11156611 0.12296787 0.24309124 -0.113418125 -0.29996684 -0.16038658
0.17314929 0.2510709 -0.37338024 0.33584744 0.3188234 0.024730748 0.06706144 -0.36740544
0.32551274 -0.19905576 0.11286215 -0.042656135 -0.07176878 0.17069395 0.032606017 -0.42473665
-0.14322871 0.19903639 -0.233594 -0.15037948 0.14836973 0.19623896 0.12082477 0.24548595
0.21950974 0.15581872 -0.13332182 -0.061577626 0.17211893 0.34741095 -0.16352469 0.21845722

bias_ih_l0 f4 [24]
00000000: 427e 3b3e 05ed 503e b56d 083e f82e e5bc
00000010: 44f0 3d3e 0cf3 873e 1ddd c0be 1afb efbe
00000020: 58e6 7ebc 066e 533e d767 463e 9b14 fa3c
00000030: 89be f2be 6865 89be f500 783e 606f 863e
00000040: ab21 a83d 9c50 273d f1b3 cfbe fd3a 183e
00000050: 6b59 193f f8da 64bd e2e7 e5bd 6be5 d7be
0.18309882 0.20402916 0.133231 -0.027976498 0.18548685 0.26552618 -0.37668696 -0.46871263
-0.015557848 0.2064744 0.1937555 0.030527404 -0.47410992 -0.2683518 0.24219115 0.26256847
0.08209547 0.04084836 -0.40566972 0.14866252 0.59902066 -0.055872887 -0.11225869 -0.4216722

bias_hh_l0 f4 [24]
00000000: 9285 bbbc 2571 543e 0153 7a3e 306d 88bb
00000010: 7afc d83e b6ee fd3d 0d60 3abe 650f 973d
00000020: 6317 3fbe e49c 263e e576 6e3e e4e6 893e
00000030: 3df6 15be e149 8fbe afa8 2e3d 48d0 c83d
00000040: 9fa2 01be 2fc4 733d e180 8cbe 9bda 68be
00000050: ec1b 843d 0a7a 90be a52d 3ebe a593 0a3d
-0.02289084 0.20746286 0.24445726 -0.004163407 0.42380124 0.12399046 -0.18200703 0.07375983
-0.18661265 0.16270787 0.23287542 0.26933968 -0.14644714 -0.27986053 0.042641338 0.098053515
-0.12659691 0.059513267 -0.27442077 -0.22739641 0.06450638 -0.28218108 -0.185721 0.03383221

weight_ih_l0_reverse f4 [24, 14]
00000000: f6e3 8bbe 0ba5 e13c c04f c6be e690 053e
00000010: 418d 3cbe 67cc 56be 1579 a83d 7698 68bd
00000020: d45c febd b631 93bd f620 b0be 643f 91be
00000030: cd09 a9bd 21bc 74be 0151 153d b826 183e
00000040: c7a1 c93e ae1f 42be 2dfc 913d 3e18 b83e
00000050: 6fee e03d ed8a cfbe 0f42 8f3e 391b b2be
00000060: 4aa4 c5be ec0b 393e e889 173e 49b2 943e
00000070: ffa8 3fbe 476c b2be 1544 88be 4c2d 023e
00000080: 79a4 45be 3c75 3dbe 8fe3 943e fc3a 833e
00000090: a0ae 993e 05ae 063e 5f22 5c3c 2221 73bd
000000a0: 419a 263e b04c a73e 9df8 fc3d b9b8 923e
000000b0: 8b72 dcbd c11d 7b3c 103b adbe 99c2 96be
000000c0: 83d6 78be db98 e7bd ac30 a53e f43a ccbe
000000d0: 2588 e2bc 4533 133e 2517 89be 6e2c 7e3e
000000e0: 2959 30be a71a 9fbe e665 a33d 7d2e cfbd
000000f0: 6189 3e3e 46ca 543e 196b 87be b514 823e
00000100: 40cf 533e 6967 133e 0c95 bd3d fed1 60be
00000110: b835 b73e 50af c4bd 0183 4fbd d7a3 a63d
00000120: a336 3e3c ff84 553e adc6 8f3e 1cc8 b13d
00000130: 757e 763e be0d ba3d d7c2 b73e 6ad7 e1be
00000140: 15e8 b3be fa41 bf3d ebc1 8c3c 9504 0bbe
00000150: 38d0 803e 6b8e 8abe b864 9d3e 0389 9a3e
00000160: bfe4 383d 66b0 cfbd 83fb f93c 25a1 b83e
00000170: 5e05 bfbd 2cb6 a03c 73f0 b9be 2f37 2dbe
00000180: 3008 ddbd 7c53 8f3e 9258 cd3e 33e2 893e
00000190: fea4 aebe 7e49 28bd 832a 6e3c 84c2 3fbe
000001a0: 1848 2cbd d8f8 d9bd 1a9b a7bd d60f ae3e
000001b0: 9702 c63e e71e 993e a57c 5abe 3e86 bb3c
000001c0: f16b cdbd b1db c33e d262 183e 5613 a73e
000001d0: 1667 273d 9b3b 633e ad93 033e ecf6 1d3e
000001e0: 0a2e 553e d2fd 7abe 218b 0c3e 6a5b 4cbe
000001f0: 0b53 fb3d b1b5 7abd 0fe7 d83d 081b 82be
00000200: d48e efbd b30b df3e bd6e c53d fcbd cf3e
00000210: 6722 ca3d 8916 913e a2cb 8b3d 782e 0f3b
00000220: 18be 563e e22d d3bd 8087 823e 3575 b33e
00000230: 326f 893e c04d ea3e 5262 38be 7708 0c3c
00000240: 6d81 793e 5767 fd3e 3353 3fbe 2ebb 4ebc
00000250: e76c 943d 39e5 003e c776 0f3e 10c4 b23c
00000260: 1c50 cbbc eb24 1d3a 0c6d 93be c619 463e
00000270: 44da bd3d 0fdb df3d 9068 213e 0a0e 3c3e
00000280: 6f43 793e e15f 7d3d 3db3 5f3c bc63 a43d
00000290: b64e 89bd b749 b1be b915 adbe 110c 2abe
000002a0: adf0 ccbe 8127 07be 86ce 08be d567 97bd
000002b0: e4a7 96be a8ff 60be 2e1d 1dbe 4dfc 27be
000002c0: ce50 3c3d c21b 0abc c17f 513e 8391 043e
000002d0: ac9e c0be 7c21 1d3e 3682 b0be 5da5 e03d
000002e0: ff65 313e ab69 813c 9996 9abe 19e8 cbbc
000002f0: 724b 21be 45a0 8dbb fcff eb3c ba57 35bc
00000300: a05a 08be c1c8 083b 45af 4abe 1d99 b9bd
00000310: 53a9 693d cff6 3fbe f5f3 34be ecc6 203e
00000320: fc85 b3be e83e 35be 1375 86bd 4595 cdbd
00000330: 5191 bdbe 07ea 503d 2655 65be 0191 3f3e
00000340: f93b c53d 255d 6abe 2e03 3dbe abb3 92ba
00000350: a88f 5e3e 17b7 653e 6b4c 163e b243 d23e
00000360: b188 893e 8add 50be cc36 9e3e 7e1a 083e
00000370: e71a 31be 5cdd 003d 7604 b03e 4421 043e
00000380: 5c1f 8c3d 13f9 79bd 4882 cd3e adb1 b73e
00000390: d111 8ebe fdb3 0a3d cd31 ac3e 8038 13be
000003a0: 0947 d33d e53e a73e f0d6 003e 896d 1bbd
000003b0: 8233 1c3e 4628 d0bd d7c0 97be 918a 91be
000003c0: df26 863e 9bea c0bd adc1 f63c d911 413e
000003d0: 25db e13d 47ec b9be f65d 73be df1a c53d
000003e0: 038c b63c 9def 67be bbd8 ef3d 1c96 aebd
000003f0: 97ac d7be 9d2d 86be 7f48 8dbd 025c da3e
-0.27322358 0.027544519 -0.3873272 0.13043556 -0.18413259 -0.20976411 0.082262196 -0.056786023
-0.12420049 -0.07187216 -0.34400147 -0.28368676 -0.082538225 -0.2389989 0.036454204 0.1485852
0.3938124 -0.18957397 0.07128177 0.35955995 0.109829776 -0.4053568 0.27980086 -0.34786394
-0.38601905 0.18070954 0.14798701 0.2904227 -0.1871681 -0.34848234 -0.26614442 0.12712592
-0.19301023 -0.18501753 0.29079863 0.2563094 0.3001604 0.1315232 0.013435929 -0.05935777
0.1626978 0.32675695 0.12352107 0.28656557 -0.10764035 0.015326918 -0.33834124 -0.2944534
-0.2430058 -0.11308452 0.32263696 -0.39888728 -0.02765281 0.14375027 -0.2677547 0.24821636
-0.17221512 -0.31075022 0.0797842 -0.10116289 0.18607093 0.20780286 -0.26448897 0.25406423
0.20684528 0.14394917 0.09256944 -0.21955106 0.35783172 -0.09603751 -0.050662044 0.08136719
0.011609706 0.20851515 0.28081265 0.08680746 0.24071677 0.09084652 0.35890839 -0.4410966
-0.35138002 0.09338756 0.017182311 -0.13575967 0.25158858 -0.2706178 0.30740905 0.30182657
0.045140024 -0.10141067 0.030515438 0.36060444 -0.093271956 0.019618116 -0.3631626 -0.16915582
-0.10792577 0.2799338 0.40106636 0.2693039 -0.34110254 -0.041085713 0.014536503 -0.18726546
-0.04206094 -0.10643166 -0.0818388 0.33996457 0.3867385 0.2990639 -0.2133661 0.02289116
-0.10030354 0.3825355 0.14881447 0.3263194 0.040869795 0.22190706 0.12849303 0.15426224
0.20818344 -0.24510887 0.13724948 -0.19956747 0.122716986 -0.06120843 0.10590946 -0.25411248
-0.11697164 0.43563613 0.09640262 0.40574634 0.09869843 0.28337505 0.06825949 0.0021847766
0.20970953 -0.10311486 0.25494003 0.3505036 0.26842648 0.45762444 -0.18006256 0.00854694
0.24365778 0.49492905 -0.18684082 -0.012617869 0.07247334 0.12587442 0.14010154 0.021822006
-0.024818473 0.0005994576 -0.28794134 0.1934577 0.092701465 0.10930454 0.15762544 0.1836473
0.2434213 0.061859015 0.013653574 0.08026835 -0.06704466 -0.34626552 -0.33805636 -0.16606165
-0.4002737 -0.13198663 -0.13360032 -0.07392851 -0.29424965 -0.21972525 -0.15343162 -0.16404839
0.0459755 -0.00842947 0.2045889 0.12946133 -0.37621057 0.15344805 -0.34474343 0.109690405
0.17324065 0.015797457 -0.30193022 -0.024890946 -0.15751436 -0.004322084 0.028808586 -0.011068279
-0.1331582 0.0020871612 -0.19793423 -0.09062407 0.057046246 -0.18746494 -0.17671187 0.15700883
-0.3506316 -0.17699778 -0.06565299 -0.100382365 -0.3702493 0.051004436 -0.22395763 0.18707658
0.096305795 -0.22887094 -0.18458244 -0.0011192461 0.21734488 0.22433124 0.14677589 0.41067272
0.268621 -0.2039701 0.30901182 0.13291356 -0.17295419 0.031461105 0.34378403 0.12903315
0.06841919 -0.06102855 0.4013846 0.35877743 -0.27747968 0.033863056 0.33631745 -0.14377022
0.10316283 0.32665172 0.12581992 -0.037946258 0.15254024 -0.101639315 -0.29639313 -0.2842603
0.2620153 -0.094197474 0.030121649 0.18854465 0.110281266 -0.36313078 -0.23766312 0.09624266
0.02228356 -0.22649999 0.1171126 -0.08524725 -0.42123863 -0.26206675 -0.06898593 0.4264832

weight_hh_l0_reverse f4 [24, 8]
00000000: 7efd 4dbe c085 86bc b931 9a3e a0bc 673d
00000010: 6f1a b1be ec61 82bd cced c73d a90b a93e
00000020: 1b91 60be 7144 05be 2495 b3bd 3d4f 9d3e
00000030: c4a0 fbbd f1b7 9ebe b88b 53bd ea60 5a3e
00000040: 601d 90bc 2001 df3d cc36 aabe d6cd 393e
00000050: c514 1abe 9015 a5be f0b2 8bbe 21c6 af3e
00000060: 139d 6abe 7c06 903d 40c3 833d 04e4 29be
00000070: 82ff e4bd bff1 b2be 1d5b 68be 064a 673e
00000080: d7cb a73e 48a6 89be 9356 95be e417 e3bd
00000090: 1bc2 9abe 670d 9b3e 0cde 9cbe eef0 93be
000000a0: 3017 f33d f894 5dbe 1004 3abe ace4 a33d
000000b0: 5f8e b03e 6997 2cbe 5b7f 833e ef40 a2be
000000c0: 8455 a4be ef56 a33e c1b0 59be 1e23 94be
000000d0: 227a 6c3e 9051 fc3d 9ec2 2c3e 5474 c83d
000000e0: ac8b 38be c058 afbe b16f 0fbe be39 253e
000000f0: 8b00 a7be d4d3 73be e086 333c a88a 98be
00000100: e607 2f3e bd14 b13e 114d ab3e 3ac5 583e
00000110: 62b4 1dbe 397a a93e a3a0 9d3e 5150 b03e
00000120: 1c7b a6bd da0b 83be 406a ce3c c2c5 293e
00000130: c594 a83e 898d a63e d853 c03d fc1c 79be
00000140: 40a4 dbbd 00e5 e2bc 4c23 fa3d fab4 603e
00000150: aeb3 7fbe 0e7d 653e 9c72 6dbe 7e0e 2bbe
00000160: 38c0 53bd 04c3 92be da80 793e dfea 9f3e
00000170: c42d dbbd cd99 9b3e 701c 503d fbe6 76be
00000180: c2ae 2d3e da01 8cbe 4263 6f3e d0b3 9abc
00000190: 0732 9fbe 0873 4e3d e553 88be 2f8e 4cbe
000001a0: 98ef 41bd 7034 a43c 7011 87be 8032 6b3c
000001b0: 3a1d abbe 5419 9c3d 09b8 933e 9ea2 fbbd
000001c0: 4722 a83e 2445 83be 5c1e cebd 4e2f 6bbe
000001d0: 50c8 683d 1ff1 813e e61f 623e 2731 b23e
000001e0: e6d9 4f3e d01e 933c 394e 5fbe 6096 25be
000001f0: 5593 943e b975 a0be a7a3 4cbe 50a2 e23d
00000200: 0eb1 793e d87c 9e3d d2bf 0e3e 9020 b73d
00000210: dac4 76be 00e0 67be 0b2b 2bbe a0fa 92bd
00000220: f187 ac3e 864e 81be 40bf a8bc 2e9b 6bbe
00000230: d042 883c 6ed9 513e 3047 9ebc 32ea 613e
00000240: c209 3d3e 8c53 dfbd 1421 89be 70a5 e8bd
00000250: 089a 813d 542b 8d3d f170 89be ca9f 4a3e
00000260: dbf6 b3be c55f 853e e253 a9be 7043 d63c
00000270: 2b26 a33e 48a2 743d 6f50 983e f086 a3bd
00000280: 8430 a5bd 00e9 90be 52e8 003e 334d 8f3e
00000290: 9cd7 883d 8ef2 143e cb12 57be cf8c 943e
000002a0: 70fa 47bd 4cf0 9dbd 08d7 e33d aaf9 00be
000002b0: be84 143e 685b 80bd 10a8 613d a042 5cbc
000002c0: f70c 5ebe 28fb 7cbe 526a 603e 3884 8abe
000002d0: 6465 913d 50e9 aabe 8664 183e 0006 1c3c
000002e0: d18b 8e3e 8e8b e5bd b5c4 903e be18 683e
000002f0: f3a5 8c3e 6b61 1fbe 7412 b5bd b815 96be
-0.20116231 -0.016421199 0.3011606 0.05657637 -0.3459048 -0.06366333 0.09762153 0.33016708
-0.21930353 -0.1301439 -0.08768681 0.30724517 -0.12286523 -0.3099971 -0.051646918 0.21326032
-0.017592132 0.108888865 -0.33244932 0.18144926 -0.15046985 -0.32243013 -0.27284956 0.34330848
-0.22911482 0.07032487 0.06433725 -0.16590887 -0.11181547 -0.34950063 -0.22691007 0.22586831
0.32772705 -0.26884675 -0.29167613 -0.11088541 -0.30226216 0.30283663 -0.30638158 -0.28894752
0.11869657 -0.21638858 -0.18165612 0.080026 0.3448362 -0.16854633 0.25683102 -0.31690165
-0.32096493 0.31902263 -0.21258833 -0.28933042 0.23093465 0.12320244 0.16871116 0.09787813
-0.1802203 -0.34247398 -0.1400745 0.16135308 -0.32617602 -0.23811275 0.01095745 -0.29793286
0.17092857 0.34586135 0.33457235 0.21168986 -0.15400842 0.3310106 0.3078662 0.34436277
-0.0812895 -0.2559498 0.025197148 0.16579345 0.32926002 0.32529858 0.09390992 -0.24327463
-0.107246876 -0.027697086 0.122137636 0.21944037 -0.24970886 0.22410986 -0.23188251 -0.16704747
-0.051696986 -0.2866441 0.24365559 0.3123388 -0.107020885 0.30390778 0.05080837 -0.2411155
0.16961196 -0.27345163 0.23377708 -0.01888457 -0.31092855 0.05040267 -0.26626506 -0.19976114
-0.047347635 0.020044535 -0.2638049 0.014355302 -0.33420736 0.076220185 0.28851345 -0.12286876
0.32838652 -0.25638688 -0.10064384 -0.22967264 0.056831658 0.25379273 0.22082481 0.34803125
0.20297965 0.017959028 -0.21807183 -0.16170645 0.29018655 -0.31339815 -0.19984303 0.11066115
0.24383947 0.07738656 0.13940361 0.08941758 -0.2409853 -0.22644043 -0.16715638 -0.07176709
0.33697465 -0.2525522 -0.020599008 -0.23008415 0.016633421 0.20493099 -0.019321054 0.22061995
0.18460754 -0.10904607 -0.2678305 -0.1135968 0.06328207 0.0689303 -0.2684398 0.19787517
-0.35149273 0.2604963 -0.3307181 0.026155204 0.31865057 0.059725076 0.29748866 -0.07984722
-0.08065894 -0.28302765 0.12588623 0.27988586 0.06681749 0.14545652 -0.21003263 0.29013678
-0.04882282 -0.077118486 0.11124998 -0.1259524 0.14503762 -0.06267434 0.055091918 -0.013443619
-0.21684633 -0.24705184 0.21915558 -0.27054 0.07099417 -0.33381128 0.14882097 0.009522915
0.27841046 -0.112082586 0.28275076 0.22665688 0.2747036 -0.15564506 -0.0884141 -0.29313445

bias_ih_l0_reverse f4 [24]
00000000: 2725 5c3e 2772 08be 1c0a 123e 54ed dc3e
00000010: 83b1 d23e 7fca b53e 30ff 593e 1cb6 ba3e
00000020: b253 9abe cc79 9e3e 9128 a93e 6095 32be
00000030: 9e1f 833e 20ac 27bc 1ee5 65bc dbdb c53c
00000040: bcb9 1cbb 4b8b a53c 54ee a4be 7817 4c3e
00000050: 76b5 77be d57d ee3e 9184 983e 2af3 4cbe
0.21498547 -0.13324796 0.14261669 0.43149817 0.41151056 0.35506055 0.21288753 0.36467063
-0.3014198 0.309523 0.33038762 -0.17439795 0.2561006 -0.010233909 -0.014031677 0.024152687
-0.0023914417 0.020208022 -0.3221308 0.19930828 -0.24190316 0.46580377 0.2978864 -0.20014635

bias_hh_l0_reverse f4 [24]
00000000: de87 923c 965b 7d3d 0d9b 763e bd62 af3e
00000010: 3de8 313e 84b4 cf3e 2337 c13d 8c83 623e
00000020: 05f7 93bd 274c 763e 5ffc ba3e 7cee c8be
00000030: 6cc3 f5bd 322c aabc 0755 3ebe 0b98 abbc
00000040: ed20 b9be 05aa e23d edde cdbe 6538 323e
00000050: fec2 de3d 7780 db3e 81dc 4b3e c9f2 e53e
0.017887052 0.06185492 0.24082585 0.3425502 0.17373748 0.4056741 0.094343446 0.22120494
-0.072248496 0.24052487 0.3652067 -0.3924445 -0.120001644 -0.020773027 -0.18587123 -0.020946523
-0.36157933 0.11067585 -0.4020914 0.17404325 0.108770356 0.42871448 0.19908334 0.44911793

weight f4 [16]
00000000: ca1a 873f 576c 8d3f 4223 833f e68d 853f
00000010: 7212 723f 7caa 733f 7046 713f 9259 843f
00000020: 3148 5d3f b946 723f 5a44 823f 46e5 823f
00000030: ca68 5d3f 771b 863f 04ec 6e3f bc21 803f
1.055505 1.1048688 1.0245135 1.0433929 0.94559395 0.95182014 0.94248104 1.0339835
0.8643828 0.94639164 1.0177109 1.0226219 0.8648802 1.0477132 0.9332888 1.0010295

bias f4 [16]
00000000: a48b 653d f91d 763d 999b 133d 54f7 a53c
00000010: 8da3 16bd d1a3 47bd ad3a 143d f4c8 9b3c
00000020: fdfc 143d 24f6 00bd 5cda 613d 54e6 7e3b
00000030: c13c 4fbd 832e 86bd a264 593d 7856 9abd
0.056041375 0.060087178 0.03603706 0.020259537 -0.036777068 -0.048740212 0.03618877 0.01901672
0.03637408 -0.031484738 0.055139884 0.003889461 -0.05059505 -0.0655184 0.053074487 -0.07536024

running_mean f4 [16]
00000000: 23e3 3a3d b0df 9d3d 4a42 d5be 190b 453d
00000010: 66b7 1f3f 94eb 22be c49b 9cbd f685 6dbe
00000020: d406 12be caeb cc3c 2596 063d 9ac1 003e
00000030: ab19 d6bd 1dcd 9b3e 8895 3f3e 560c 32bd
0.04562677 0.07708681 -0.41652137 0.048106287 0.6238922 -0.15910178 -0.076468974 -0.23195633
-0.14260417 0.025014777 0.032858033 0.12573853 -0.104541145 0.30429927 0.18709385 -0.043468796

running_var f4 [16]
00000000: d461 a83e ee0d a13e ab84 733e 5583 9b3e
00000010: 94c9 273e 303a 523e 50a7 a33e 8c22 923e
00000020: 4299 c53d 1f1c 633d 0dfc a33d 4ea4 173e
00000030: a558 b03d 00ec 403d a7dd a43d 27e1 d63d
0.32887137 0.3145594 0.23781078 0.30373636 0.1638549 0.2053001 0.31963587 0.28541982
0.09648372 0.05544674 0.08007059 0.14808771 0.086106576 0.047100067 0.08050089 0.10492163

weight f4 [16, 16]
00000000: 246d 1cbe 28ce 013e 9865 e03d 2a7b 133e
00000010: 6338 99be 6cc8 39bd 9312 83be a434 9a3e
00000020: d252 11be 8718 383e 0141 813d fab3 643e
00000030: ca1f 8fbd 113e 79be e5da e13c b007 92be
00000040: d519 463d cdee d0bc a000 5a3d adfd 4fbe
00000050: 8557 0c3d 60ca bcbd a9cd 97bd d1c8 3d3e
00000060: 73f4 803d 12c1 97bd 1311 5f3e ff17 753c
00000070: 4a60 693e 9970 653d da77 11bd 2351 c0bd
00000080: f6b2 17be 9f82 22be 0cbe 4fbe a974 3fbe
00000090: 3066 523d 2d56 66be 2a8d 52be d405 6c3c
000000a0: 4b31 883d 6f47 d3bd f53b 2d3e db48 75bd
000000b0: aad5 e0bd 8367 85bd 4f1f 6c3e 89ea e53c
000000c0: afdb c1bd 9815 7cbe 9e52 b43b 0466 40bd
000000d0: 7943 693e c279 81be fe8a c7bc 018b 203d
000000e0: 48f2 bdbd 3e0f c2bd d4ed 7f3d f31e 9d3c
000000f0: e3ee 17be 340b d33c 0bda 6bba 38ff 16be
00000100: dd80 e23d f56c 253e 3769 8a3d 6166 76be
00000110: 71c6 9dbd 38d8 a4bd 2f3d e6bd 549e bc3e
00000120: 6e3e 2dbc 9451 753d 37df 3a3e ba70 3c3d
00000130: 7339 1b3d db88 92be d387 08be a801 8b3c
00000140: a908 803e ae3c b73e fcb7 00be 3ad1 86bc
00000150: 8094 11bb b8f5 323e 436c f63d 2904 6dbd
00000160: cf71 efbb f4b7 af3d 8180 4e3e c089 0e3d
00000170: 97ba bebd d04a 27be cd20 3c3e 5710 62be
00000180: 7b7f 0f3d 5217 80be 7b17 2a3e eeb3 c43d
00000190: 0d13 3cbe 18d7 8bbe a659 b3bc 4c19 8dbd
000001a0: 169b 073e 0046 4bbe ca7c 1e3e 1aac 9abe
000001b0: 944c 703d b460 0d3e de5d d4bc 5418 313e
000001c0: 1030 6ebe f918 95be 7796 703e e6ad 313e
000001d0: 1bf3 3bbe 9c18 3e3e 1502 8ebd 2b85 823c
000001e0: 462e ae3d bd29 343e 5fbc 0e3e deb2 71bc
000001f0: 391b 743e a4e7 a23e 0cf3 93bd f7ad 18be
00000200: 111f 57be 423d 4abd 7fff 493e 0dbd 813e
00000210: a704 08be 21ae 8cbe 96d6 063e 3264 4e3c
00000220: 626f 053d 7477 2d3d 016e 013d ebfe a8bc
00000230: 41a8 aebc 8243 abbd 3d1e 353e 7dc8 87bd
00000240: ae20 02bd 1150 b23d 50d0 8f3e 0f8d 1a3e
00000250: df8f 013d 4330 1f3e 86c8 493e 42d3 3ebd
00000260: deee afbd 4334 4dbd fdc3 3d3e 2c15 38be
00000270: 7346 39be a3fa 95bc c6e6 823e 9691 4dbe
00000280: d5bd 6f3d 72dd d73d 7632 073d 896b 2abd
00000290: a123 bb3c afbe 593e 8b84 fbbc 7e0e fabd
000002a0: 5bdd 03be 27a9 0cbd 72a1 863e a7cf 01bd
000002b0: c5ed 223e 4395 673d 6895 e6bd 3a51 c6bd
000002c0: a640 163e 9585 87be 13ff c9bd 3f5d 033e
000002d0: 119c 66bd e868 363e 8ab0 683e 3665 a73d
000002e0: b22b 083e 3565 98bd f707 95ba f5fb 90be
000002f0: eb76 213d e799 7a3e 7096 fe3d 7508 06bd
00000300: c99f 78be c7e4 d93c 860a 063e cf9c 683e
00000310: fdd6 bdbd 089f 3dbe c1be 21bd 1150 153d
00000320: 65c3 17be dede 213e e0db 49ba ead5 493d
00000330: 1782 893e e265 653d 3539 b63d 0337 07be
00000340: 877e 26be 51b6 f13d c3f9 c43c b8b6 1abe
00000350: 6828 883d 0402 dd3d 2eff d7bd d64a 913e
00000360: ea65 05be ef69 86bd 03d0 3fba 1e18 21bb
00000370: 4daf b53d 907c 42be fb1c cf3d 72f3 b4bd
00000380: 3c8f ef3d b2a8 9bbe 4adc 103e c9b1 40be
00000390: ca94 22be 159e f7bd aec3 7abc 9716 82be
000003a0: d30c 29bd da2b b03d 4c65 243c 39d7 36bc
000003b0: 464e 75be 1132 59be 227b 56be a193 8abd
000003c0: fe05 583c 2e5a 01bc cfbe 313e f881 533e
000003d0: 2cee 48bd 5dcd 96be c652 6a3e 8996 82be
000003e0: ee63 e43c 8a7d 49bd 629f 8bbd b7f2 b03d
000003f0: 8fdc 94bd bdb4 693d 9124 273d 057b 21be
-0.15276009 0.12676299 0.109568775 0.14402452 -0.29925832 -0.045357153 -0.25600109 0.30118287
-0.1419175 0.17978106 0.06311227 0.2233428 -0.06988485 -0.24340083 0.027570197 -0.2852149
0.04836448 -0.025504494 0.053223252 -0.20311613 0.034263153 -0.092182875 -0.074122734 0.18533637
0.06296625 -0.07409872 0.21783857 0.014959334 0.22790638 0.056015585 -0.03551469 -0.093904756
-0.14814362 -0.1587014 -0.20287341 -0.18696846 0.051366985 -0.22493811 -0.20561662 0.014405686
0.06650027 -0.10316359 0.16917403 -0.059883934 -0.10978253 -0.06513884 0.23058818 0.028065937
-0.094657294 -0.24617612 0.005503013 -0.04697229 0.22779645 -0.25288206 -0.024358269 0.039195064
-0.09274727 -0.094755635 0.06248267 0.019179797 -0.14837222 0.025762178 -0.00089970295 -0.14745796
0.11059735 0.16154845 0.067583494 -0.24062492 -0.07703865 -0.08049053 -0.112421386 0.36839545
-0.010573966 0.059892252 0.18249212 0.046005942 0.037896585 -0.28620037 -0.13333063 0.016968563
0.25006607 0.35788482 -0.12570184 -0.016457189 -0.0022213757 0.17476547 0.12032368 -0.057865296
-0.007307268 0.08580008 0.20166208 0.034799337 -0.09312933 -0.16337132 0.18371888 -0.22076546
0.035033684 -0.25017792 0.1661052 0.09604631 -0.18366642 -0.2731254 -0.021893334 -0.068895906
0.13242754 -0.19850922 0.15477291 -0.30209428 0.05866678 0.1380642 -0.025923666 0.17294437
-0.23260522 -0.29120615 0.23494898 0.17351493 -0.18354456 0.18564075 -0.06933991 0.01593264
0.0850492 0.17594047 0.13939045 -0.014752118 0.2383851 0.31817353 -0.07224092 -0.14910112
-0.21007945 -0.049374826 0.1972637 0.25339547 -0.13283025 -0.274766 0.13167796 0.012597131
0.032576926 0.042350248 0.03159905 -0.020629367 -0.021320464 -0.083624855 0.17687316 -0.06630037
-0.031769447 0.08706678 0.28088617 0.15092872 0.031631347 0.15545754 0.197054 -0.04658819
-0.08590482 -0.05009867 0.18531795 -0.17976826 -0.1809328 -0.01830799 0.2556669 -0.20075068
0.058530647 0.10540284 0.033007108 -0.04160646 0.022844138 0.21264146 -0.03070285 -0.122097954
-0.12877409 -0.034341004 0.26295048 -0.031692173 0.15911014 0.05653883 -0.11258966 -0.096834615
0.14673099 -0.26469103 -0.09863105 0.1282854 -0.05630118 0.17813456 0.22723594 0.08173601
0.13297918 -0.07441179 -0.0011370172 -0.28317228 0.03942005 0.24472772 0.124310374 -0.03272291
-0.24279703 0.026598347 0.13089952 0.22716068 -0.092695214 -0.18517697 -0.039488558 0.03645331
-0.14820631 0.15807673 -0.00077003054 0.04927627 0.26857063 0.056005366 0.0889763 -0.13204579
-0.16259204 0.11802352 0.024044877 -0.15108764 0.06648332 0.107914 -0.105467185 0.28377408
-0.13027158 -0.06563174 -0.0007317068 -0.0024581025 0.088713266 -0.1899283 0.101129495 -0.08835496
0.11697242 -0.30402142 0.14146534 -0.1881782 -0.15877071 -0.12090699 -0.015305443 -0.2540786
-0.041271996 0.08602114 0.010033917 -0.0111597115 -0.2395564 -0.21210505 -0.20945409 -0.06766439
0.013185022 -0.007895036 0.17357944 0.20655048 -0.049055263 -0.29453555 0.22883138 -0.25505474
0.027879681 -0.04919199 -0.06817509 0.08640044 -0.07268631 0.05705713 0.040806357 -0.15769584

bias f4 [16]
00000000: 9131 853e b7f1 d83d c3c3 96be 3d78 a53d
00000010: e93c 773e 5d14 563e ce8b 543d 9665 e1bc
00000020: a0eb 003e 208b 4ebb 1256 02be c2b9 89bd
00000030: 1476 543c 9968 8d3e c874 2a3e c6d8 383d
0.2601438 0.105929784 -0.2944623 0.08079574 0.24144329 0.20906205 0.05189114 -0.02751426
0.12589884 -0.003151603 -0.12728146 -0.067248836 0.012967605 0.27618864 0.16646111 0.045128606

weight f4 [1, 16]
00000000: de6e b5bd 52c9 61bd e3e2 2bbd c935 033e
00000010: fbd8 69be 8dc8 8ebe 2fef 5e3e 4d9f 233e
00000020: adab 4e3e ca23 373e 6f1a 23be 7f58 ab3d
00000030: 75b5 e93c 9cc0 8fbd b707 203d 4ac4 fb3d
-0.08859037 -0.055123635 -0.041964423 0.12813486 -0.22836678 -0.27887383 0.21770929 0.15978737
0.20182677 0.17884746 -0.15928052 0.08366489 0.028528908 -0.07019159 0.039069857 0.122932985
